ReinforcementLearning/models/TrainedModel.pth (torch, 110465 bytes, 8 tensors)

model.0.weight f4 [128, 12]
000000 24 39 4c be 20 4b 13 3d 7d a7 83 3e 8d 8d 3b bc
       -0.19943672 0.035960317 0.2571372 -0.011447323
000010 b2 bc 06 bd 2e d3 7b 3e f5 9d 78 3e 93 0d fd 3d
       -0.032894798 0.24592277 0.24279006 0.12356105
000020 40 e7 27 3e fc b8 0e be c3 ca d1 3e 0e 18 07 be
       0.16396809 -0.13937753 0.40975007 -0.1319277
000030 7f 06 f7 3c 9d d6 6f 3e e1 c9 1d bf e3 69 58 3d
       0.030154465 0.23421712 -0.6163617 0.052835356
000040 41 cf 08 3e 1f 1f 26 3c cd c8 d3 be b5 e8 94 3d
       0.13360311 0.010139256 -0.41364136 0.07270948
000050 c5 11 8b 3e 4b 5e 14 3d 3c 9b 26 bf 4b d5 83 bc
       0.27161995 0.036222737 -0.6508062 -0.016092917
000060 14 fc 91 be 28 00 28 bd 1a 37 84 be 3c d3 b5 3d
       -0.28512633 -0.041015774 -0.2582329 0.088781804
000070 a4 5b 2e be 9c ec e1 3d 59 86 1e be 22 27 7c be
       -0.17027146 0.11031458 -0.15480937 -0.24624303
000080 f0 81 f7 bd ea 00 3e be 5c 8a 95 3d d0 6c 7a 3e
       -0.120853305 -0.18555036 0.073017806 0.24455571
000090 9c 65 47 3e fc bb 3f 3c a7 ca 7a be 91 e1 cc 3d
       0.19472355 0.011702534 -0.24491368 0.10003961
0000a0 45 82 50 3e 42 e1 87 bc 06 30 28 bf 64 04 79 3e
       0.20362194 -0.016586903 -0.6569828 0.24318081
0000b0 7e 76 8a 3e d9 54 10 3d 69 dd 11 bf f9 88 12 3e
       0.27043527 0.035237167 -0.5697847 0.14310063
0000c0 d0 aa 9c 3d a2 5b b3 3e e5 04 41 be b5 59 37 be
       0.076497674 0.35030848 -0.18849523 -0.17905314
0000d0 27 ca 86 3d a9 bc cf 3e 20 10 2c be 3b cf 11 bd
       0.06581526 0.40573624 -0.16803026 -0.03559802
0000e0 0e b9 7d 3e 2c e8 b0 3e 9c 80 b6 be cc b9 9a be
       0.24777624 0.34552133 -0.35644996 -0.30219877
0000f0 10 7d 67 3d c0 70 7d be ef 08 4a bf 62 37 88 3d
       0.056515753 -0.24750042 -0.7891988 0.066511884
000100 cf f0 54 3d c3 af 25 3e 2c 83 45 bf c5 f0 59 be
       0.051987465 0.16180329 -0.7715328 -0.21283253
000110 cb 2c 26 be ad d7 99 3e e5 3d 64 bf ef 5c b0 3d
       -0.16228025 0.3004736 -0.89156944 0.08611476
000120 28 18 71 bd c0 4a eb 3c aa ec a1 bd 88 a3 31 bd
       -0.058860928 0.028722167 -0.07906468 -0.043368846
000130 ca 39 85 be 08 b3 c1 3d ce 8c 2c be e9 52 47 be
       -0.26020652 0.094579756 -0.16850588 -0.19465221
000140 b0 e3 bf bc 60 2b 1c be 90 56 ca bc 00 14 41 3d
       -0.023424 -0.15250921 -0.02469948 0.047138214
000150 e3 ad 96 bc c2 8e cb bd bb 5c 52 bf f9 dd 96 bc
       -0.018393463 -0.09939338 -0.82172745 -0.018416392
000160 e5 6c a6 3d db e2 9c 3d c7 c2 6b bf e0 5d 03 be
       0.08126239 0.07660457 -0.9209408 -0.12828779
000170 e6 54 b8 bd be 74 9d 3d 14 4b 49 bf cf 11 a2 be
       -0.09000568 0.076882824 -0.78630185 -0.31654212
000180 7b 79 30 bd 0d 53 6c 3e f6 55 a1 be 32 5f d1 bd
       -0.043084603 0.23078556 -0.31510895 -0.10223235
000190 a9 d0 2c 3c 88 f4 59 3e f2 8f 62 be 0d f3 5b 3e
       0.010547795 0.21284688 -0.22125223 0.21479435
0001a0 2a 9a d0 3d 8f 05 8a 3e a9 04 99 be 00 33 66 bd
       0.101856545 0.26957366 -0.29886368 -0.05620098
0001b0 74 14 54 bd 3b 34 96 bd da e3 44 be 6b d9 0d 3e
       -0.051777318 -0.07334181 -0.19227543 0.1385247
0001c0 04 97 98 3e d1 7d 9e bd ee df 97 bd ff ab 5f 3e
       0.29802716 -0.07738841 -0.07415758 0.21842955
0001d0 6a 4e 9b 3e 5d e0 47 be 64 3c d8 be d1 8f 5f 3e
       0.30333263 -0.19519182 -0.42233574 0.21832205
0001e0 57 d9 37 3e df ef 68 3e 77 f0 4f be 77 1c 2b 3e
       0.17954002 0.22747754 -0.20306574 0.16710077
0001f0 74 b4 8c be 65 f8 8f be 30 d9 b6 3d 37 69 22 be
       -0.27481425 -0.28119197 0.08928144 -0.15860449
000200 64 12 9a be 2e 9d 81 3e 4c 95 9d be e3 6a 03 be
       -0.30092156 0.2531523 -0.30777967 -0.12833743
000210 51 48 16 3e 95 15 1c be 43 4d 56 bf 15 0e 3a bd
       0.14676024 -0.15242608 -0.8371164 -0.045423586
000220 74 6a 42 be ae 53 45 3e 7c 16 70 bf d0 1c d9 3d
       -0.18985921 0.19270203 -0.9378431 0.10601199
000230 62 cc 9c bb dd 05 5a 3e 58 ef 17 bf 68 65 a4 be
       -0.0047851065 0.21291299 -0.59349585 -0.32108617
000240 50 13 7b be e3 d7 8e be d0 aa 5b bd 0a 6a 84 3e
       -0.24519086 -0.27899083 -0.053629696 0.2586215
000250 ec 94 6b bd 92 29 e0 bd f2 f4 2e 3e d4 27 18 be
       -0.05751507 -0.10945429 0.17085627 -0.14858943
000260 00 c0 94 bd 28 ae 77 3d 94 65 b1 bd 00 b5 f6 3a
       -0.072631836 0.060468823 -0.086619526 0.0018822253
000270 1e fa e8 3b 21 0f 79 3e 18 11 ad 3e 2d 3a ad bd
       0.0071098944 0.24322177 0.33802104 -0.08458362
000280 2c 85 53 be 03 2a a3 3e ab cf 4f bd 7b 66 81 bd
       -0.2065627 0.3186799 -0.050735157 -0.06318375
000290 5f dc 66 be b5 18 6b be dd 6d eb 3e ec 13 08 be
       -0.22545002 -0.22958644 0.45982257 -0.1328885
0002a0 c4 8d e2 bd 11 82 06 be c5 c5 8b 3d 4d 64 a2 3c
       -0.11062196 -0.13135554 0.06824831 0.019823218
0002b0 a6 41 11 3e d0 ff 51 3e 84 6a af bd c0 d0 77 3d
       0.14185199 0.20507741 -0.08565238 0.060501814
0002c0 9b 5b b3 3e 6a 91 67 be 89 71 f3 3d 89 be fb bd
       0.35030827 -0.22614065 0.118868895 -0.12292201
0002d0 9b a5 55 bd 26 25 dc bd 75 a1 37 be 98 98 7a bd
       -0.052159887 -0.10749273 -0.17932685 -0.06118068
0002e0 39 ba 3c be c0 f7 53 bd 33 da 07 be e0 2b 15 bb
       -0.18430413 -0.051749945 -0.1326683 -0.0022761747
0002f0 8c 80 73 3e 4e 1f 86 be 3d 1c 61 3d 19 27 e4 3d
       0.23779505 -0.2619576 0.05495857 0.1114027
000300 78 71 39 3e 48 85 43 3e f5 36 32 be 3b 0d 63 3e
       0.18109691 0.19093812 -0.17403777 0.22173016
000310 71 0d cc bc 7a b0 59 be e6 02 0b be b8 6b 52 3c
       -0.024908753 -0.21258727 -0.13575324 0.012843065
000320 fd 65 7b 3e d5 69 07 be a8 4a a7 be 4a 8b 89 bc
       0.24550624 -0.13223965 -0.32674146 -0.016790051
000330 eb ae 5a 3e 64 82 bf be b2 bf b6 3c 56 fd 0f 3d
       0.21355788 -0.37404168 0.022308204 0.03515371
000340 de 3c 41 3d 4a 7f b8 be 0d eb 38 be d8 ea c7 bd
       0.047177188 -0.36034614 -0.18058415 -0.0976159
000350 8e e6 34 3e a1 19 71 be df 23 4c 3e 06 21 d3 bc
       0.17666075 -0.23544933 0.19935559 -0.025772583
000360 ee 3f a5 3e 89 b7 bd 3e df 53 72 3e ab c2 ee bc
       0.32275337 0.3705409 0.23664807 -0.02914556
000370 83 7f 77 be 3a 0c 25 3e 82 3c 55 3e cd 55 e9 3d
       -0.24169736 0.16117945 0.20823863 0.11393318
000380 23 bc be bd 5f 0e df 3e 8b 97 3e 3e f8 80 28 3e
       -0.09313228 0.43565652 0.18612497 0.16455448
000390 8d 6b 6a 3d e8 78 9a 3d cd 50 f6 be fe cd 4e bc
       0.057231475 0.07542592 -0.4810852 -0.012622355
0003a0 0d 05 7c 3e 5b 47 96 3e 5a 7c e8 be b8 f5 bd 3c
       0.24611302 0.29351315 -0.45407373 0.023188457
0003b0 75 9a a9 3c ef ee 03 be 20 60 01 bf f1 ae fd 3c
       0.020703534 -0.12884115 -0.505373 0.030967208
0003c0 e3 8a 03 3c da 83 02 3f 76 bc bd 3e a8 ad 70 3e
       0.008028719 0.5098244 0.37057847 0.23503745
0003d0 6c c5 ba bd d7 4a b5 3d c3 97 26 be dd dc 8e 3e
       -0.091196865 0.08852165 -0.1626883 0.2790288
0003e0 94 92 67 3d 64 fe ef 3e 11 a9 3f 3e e2 71 bd 3d
       0.056536272 0.46873772 0.18716837 0.09250237
0003f0 33 6a 86 3e be 0c 1d be 37 0d e9 be 5b 12 85 be
       0.262529 -0.15336892 -0.45517895 -0.25990567

model.0.bias f4 [128]
000000 40 ce 2e 3d a5 9a 2a be 88 66 93 3e a3 6e 06 3e
       0.042677164 -0.16660555 0.28789163 0.13128142
000010 d7 01 97 3e 6c 08 bd bd de d7 91 be a4 92 7b be
       0.2949359 -0.09230122 -0.28485006 -0.24567658
000020 76 b1 bf 3c 81 e0 a7 3e ad be 02 3e 2b 12 5a 3d
       0.02340005 0.3278847 0.1276805 0.053239983
000030 dc 16 32 be be 5d 6f be 55 b1 a1 bd 0e b7 80 3e
       -0.17391533 -0.23375604 -0.078951515 0.2513966
000040 2b 39 44 3d 96 cb 6e 3d 78 9b af 3e 83 93 2d 3e
       0.047906082 0.058299623 0.342983 0.16950803
000050 32 f0 ce 3d ae d8 2f bb 2e 8a 3d 3e 67 7f 48 be
       0.10104407 -0.0026832032 0.18509743 -0.1957985
000060 0b 3e 82 be e7 74 a2 3e 96 e4 a0 3d f0 81 37 3e
       -0.2543796 0.31729814 0.07856099 0.17920661
000070 b0 bd f5 bd 3b be 31 3c e3 43 9e 3a ef ce 80 be
       -0.11999071 0.010848577 0.0012074675 -0.25157878
000080 2d 1c 50 3e 96 dd a7 3d 00 f6 07 bd 11 75 c7 bd
       0.20323248 0.08196561 -0.03319359 -0.097391255
000090 79 59 e7 3e 4c 2e 7e be b5 2e c8 3e 73 94 fd 3d
       0.4518545 -0.24822348 0.39098135 0.1238183
0000a0 bc fb 85 bb 82 ab 2b 3e 39 5f 1e 3e aa c8 55 be
       -0.004088847 0.16764644 0.15466012 -0.20877329
0000b0 9c 51 67 3e 15 13 81 be 57 3d a5 be da 15 79 3e
       0.22589725 -0.2520987 -0.3227336 0.24324742
0000c0 da 6c 0d 3e d2 4b 81 bd 8c 05 64 3e e0 6b 25 be
       0.13811055 -0.0631329 0.22267741 -0.16154432
0000d0 bd 50 83 be 0f cb fd bd fd 5e cb 3d 2a 7d 54 3e
       -0.25647536 -0.12392246 0.09930227 0.20750871
0000e0 7b d4 18 3d 78 dc cb 3e 93 aa 59 be dd ee 73 be
       0.037312012 0.39816642 -0.21256475 -0.23821588
0000f0 15 00 f3 3e ef dc 3c be cf af a8 3e d1 97 b6 3d
       0.47461 -0.18443654 0.3294663 0.089156754
000100 d3 3a 27 3d 5a b6 e0 bd 9f aa b6 bd 00 9b b1 bc
       0.040827584 -0.10972281 -0.08919262 -0.021680355
000110 e0 cc e9 bc 18 a7 30 3e 7a f7 31 bd 05 a0 2a bd
       -0.028540075 0.17251241 -0.043448903 -0.041656513
000120 a4 09 2a 3e 80 55 b7 3e fe da cd bd 81 74 04 be
       0.1660524 0.3580742 -0.10051535 -0.12935068
000130 9f ae 08 3e c1 0b 14 3c 94 6d 43 3b ef a5 f1 3d
       0.13347863 0.0090360055 0.0029819952 0.117992274
000140 08 61 0d 3e 65 39 6d 3e 42 67 6d be f0 e4 92 be
       0.13806546 0.23166426 -0.23183921 -0.2869029
000150 62 ba 75 3d 98 e9 9b b9 fa e4 72 3e bd 7f 99 3d
       0.0599922 -0.00029737945 0.2372016 0.07495067
000160 02 70 10 be c3 70 41 3e 36 9e e1 3d e2 64 51 be
       -0.14105228 0.18890671 0.110165045 -0.2044864
000170 d4 7f 5c be 18 55 4c 3e e8 e3 76 3e 06 ff 0e 3e
       -0.21533138 0.19954336 0.24110377 0.13964471
000180 9d 99 a7 bd 75 16 e4 3b b1 72 b0 3e d2 93 5d 3e
       -0.08183596 0.006960685 0.34462503 0.2163842
000190 c9 f3 9f be ea ec 9c bc 48 b3 61 3c 02 16 82 3e
       -0.3124068 -0.019155938 0.013775654 0.25407416
0001a0 a7 6e 11 bd 24 de a4 bd 4e 66 4e 3d bc f9 58 3d
       -0.035505917 -0.080501825 0.050390534 0.05297254
0001b0 03 41 83 3e 0c 7a 08 bd 48 73 97 3e b5 7e 6b be
       0.25635538 -0.033319518 0.2958014 -0.22997554
0001c0 90 e2 12 be 89 f2 1f 3e 34 ff 46 3e 41 8f 2b bc
       -0.14344239 0.15619864 0.1943329 -0.010471166
0001d0 00 0e 92 3d ba 29 ab 3e 8c b4 88 3e 44 08 47 3e
       0.071315765 0.33430272 0.26700246 0.19436747
0001e0 b5 ff 94 bc 4e 2e 82 bd 70 de d4 3d dc c3 10 3e
       -0.018188337 -0.06356488 0.10393989 0.14137214
0001f0 c8 3e 7e 3e 32 e3 83 be 62 ab 29 be 8a 85 80 be
       0.24828637 -0.25759274 -0.16569284 -0.25101882

model.2.weight f4 [128, 128]
000000 86 a4 3d 3d 48 ac 11 bd ae f4 67 3d 0d ef a4 bd
       0.04629948 -0.03556469 0.05662983 -0.08053408
000010 48 94 ef bc b6 49 b2 bd 22 3a 18 3d 09 b7 71 bd
       -0.02924551 -0.087054655 0.037164815 -0.059012447
000020 2e b9 ab bd 69 e6 06 bd 31 91 a4 3d f2 30 38 3d
       -0.083849296 -0.03293458 0.080355056 0.044968553
000030 3a 3b 16 bd 92 92 6c bd bb fd 07 3d ba d4 03 bd
       -0.036677577 -0.057756968 0.03320096 -0.032185294
000040 6c f1 06 3d d6 23 3f 3d 03 88 99 3c a1 91 ab 3a
       0.03294508 0.046665035 0.018741613 0.0013089665
000050 45 1f 4e 3d a6 da 0a 3d b3 af 3d 3c 16 48 30 bd
       0.05032279 0.033899926 0.0115775345 -0.043037497
000060 6a 97 60 3d 53 9e a2 3d 10 a9 83 3c 54 40 b3 bd
       0.0548319 0.07940354 0.016071826 -0.08752504
000070 31 87 af 3d 18 4a 5a bd dd 44 68 3b f0 15 89 bd
       0.085707076 -0.053293318 0.0035441436 -0.06693637
000080 83 58 4a bd 73 3e 32 bd 42 5e 7d 3d 38 8c 17 bd
       -0.049400818 -0.043516587 0.06185747 -0.036998957
000090 32 41 df bb 54 a1 33 bd 78 3c 2b 3c e9 49 94 3d
       -0.006813192 -0.043855026 0.010451429 0.0724066
0000a0 34 51 71 bd 6c 16 38 bd d1 32 87 bd 85 fb 93 bd
       -0.058915332 -0.04494326 -0.06601489 -0.07225708
0000b0 ca f4 49 3d a6 8a 82 3d ee 60 3d ba 40 ee e5 bb
       0.049305715 0.06374101 -0.00072242215 -0.007016927
0000c0 77 ba 98 3d 70 51 19 3d eb 87 90 3d b4 01 e8 3c
       0.0745744 0.03743118 0.07057174 0.028321125
0000d0 18 0c b9 bc 50 d0 0d 3d ac fe f3 3c ac aa 9e 3c
       -0.022588775 0.03462249 0.029784523 0.019368492
0000e0 9a 25 38 3d 6a 15 5d bc 54 38 ee 3c 2e 07 4e 3d
       0.044957735 -0.013493875 0.029079594 0.050299816
0000f0 14 49 94 bd 74 af fd 3c e3 da 86 bd 40 48 3f 3c
       -0.07240501 0.030967452 -0.06584718 0.011674941
000100 ec 9d 91 bd eb 16 b3 bd 4c 41 9c bc 7d 16 ae 3d
       -0.07110199 -0.08744606 -0.019074105 0.08500383
000110 80 08 65 3a ae 39 4a 3d e2 13 12 3d 80 29 75 bb
       0.00087369233 0.049371414 0.035663493 -0.003740877
000120 2f 78 3e bd 26 db 67 3d 6a 1c 18 3d 25 94 a8 bd
       -0.046501335 0.05660548 0.037136473 -0.08231381
000130 91 9a 8b 3d c4 5f 94 bc 71 f9 52 bd 6e 9f 68 bd
       0.068165906 -0.01811207 -0.051507417 -0.05679267
000140 4f 8c 95 bd 25 bf 9b bd 40 fc ed 3c e8 65 87 3c
       -0.07302152 -0.07604817 0.029050946 0.016528085
000150 20 84 5f bb 31 8a a1 3d 74 ea 85 bc 2e 76 82 3d
       -0.0034105852 0.07887686 -0.016347148 0.06370197
000160 a1 ea a4 3d 8f 7a 9f 3d c2 66 04 3d 5e 06 50 3d
       0.080525644 0.07787048 0.03232456 0.050787322
000170 c6 2a 30 bd fc 5a 4e bd 3b 04 b0 bd 90 02 c6 bb
       -0.043009542 -0.05037974 -0.08594557 -0.006042786
000180 26 14 6c bd 39 bf 0c bd be 3f 94 3d c5 6a 91 bd
       -0.057636403 -0.03436205 0.0723872 -0.07100443
000190 6f 49 98 3d 80 eb d2 3a 00 a6 e0 ba 36 4f 6b bd
       0.07435881 0.0016091913 -0.0017139316 -0.05744859
0001a0 de 7d 90 bd 16 bb 94 bd 16 0d 91 3d 36 b1 5d 3d
       -0.07055257 -0.07262246 0.07082574 0.05412408
0001b0 86 8a 3b bc 0f 89 91 3d 68 b3 31 bc c0 1e b8 bb
       -0.011446601 0.0710622 -0.010845996 -0.0056189
0001c0 79 1a 6a bd 52 43 82 bc e6 7f 3d bd 3a a4 7a bd
       -0.057154153 -0.015901241 -0.04626455 -0.061191775
0001d0 89 e1 96 3d 60 e8 f6 3c 7c 9f 88 bc 92 2f 18 bd
       0.07367236 0.030140102 -0.01667761 -0.03715474
0001e0 a2 53 0c bd f9 ee b7 bd d4 ab 82 3c e8 e0 82 bc
       -0.034259446 -0.08981127 0.015951075 -0.015976384
0001f0 70 d6 7a 3c c5 5b 37 3d ea ab 77 3d ed 7a 89 3d
       0.015309915 0.044765253 0.060466684 0.06712899
000200 41 cb af bd cb 14 8c bf 88 cc 65 3c 70 48 0f bf
       -0.085836895 -1.0943846 0.014025815 -0.55969906
000210 20 12 95 3d af 8c 04 bd 54 ba b4 bd 50 e4 c6 bc
       0.07278848 -0.03236073 -0.08824602 -0.02427879
000220 75 8c 1d bf e1 8a a6 be e7 73 39 3d 88 5b 75 3c
       -0.61542445 -0.3252783 0.04527655 0.014975436
000230 76 cf 0e 3d ce e0 1d 3d e8 5b ed be 28 70 1d 3c
       0.03486582 0.03854447 -0.4635918 0.00960926
000240 b6 e4 bc be bc 16 eb 3e 39 17 58 3e 85 5b 84 bf
       -0.36893243 0.45915782 0.21102609 -1.034043
000250 e9 54 31 3e 52 9f 0d bd 85 86 84 be b4 71 9e 3c
       0.17317547 -0.034575768 -0.2588388 0.019341327
000260 7d 0c 58 bd 27 5e 09 bf 08 82 a4 bd 18 08 72 3c
       -0.052746285 -0.5365929 -0.08032614 0.0147724375
000270 20 d6 11 bb d6 fd 9a bd 1b 7d e9 3d 0c d2 6c 3e
       -0.0022252873 -0.075679466 0.11400815 0.23127002
000280 ae fc 06 3e bc b3 61 3e 14 f2 91 bc 8c f6 2f bd
       0.13182327 0.2204122 -0.017815627 -0.042959735
000290 20 e2 4c be 9d 63 26 bd 14 04 85 bd 48 ef 29 bc
       -0.20008135 -0.040622342 -0.064949185 -0.0103719905
0002a0 24 d0 c5 3d 06 a8 78 3d 25 37 9b 3d 40 76 2d 3e
       0.0965884 0.060707115 0.07578877 0.1693964
0002b0 18 e2 87 bd d9 e7 aa 3e 95 ac ae 3d 54 90 98 3c
       -0.06634921 0.3338001 0.08529011 0.018623509
0002c0 fb 50 29 be 17 78 2f bf 7e e0 3f 3e a4 9b b7 bc
       -0.16534798 -0.6854262 0.1873798 -0.022413082
0002d0 a0 92 c8 3c 16 cc 2e 3e d9 7e 0e bf 23 af 3b 3d
       0.024483979 0.1707004 -0.55662304 0.04582132
0002e0 47 e5 59 3d 0f fa 6d be ce 9f 62 3d 58 4e 2a bc
       0.05319717 -0.23239921 0.055328183 -0.010394655
0002f0 53 77 8d 3d 2a d8 37 bd 96 09 50 3d 6a 1e 2e 3d
       0.06907525 -0.044883884 0.05079039 0.042509474
000300 49 46 94 3d b1 d4 91 bd af ef 17 3e 4a bf 45 3d
       0.07239968 -0.07120646 0.14837526 0.04827813
000310 01 5a 8a 3d 31 72 3f bc ac 26 b9 3c 63 31 40 bf
       0.06755448 -0.01168494 0.022601448 -0.7507536
000320 6b c7 88 bf e4 cc 79 3d b2 8f e7 3c 63 90 87 3d
       -1.0685858 0.060986415 0.028266761 0.066193365
000330 78 5b d0 be ce b5 cc be 99 29 d2 3c 3a f9 50 3e
       -0.40694785 -0.39982456 0.025654601 0.20407572
000340 63 c4 92 3d ec 33 4b bb df fb 32 be 32 da a7 bd
       0.07166364 -0.003100629 -0.17478894 -0.08195914
000350 ce 7c 61 3d 25 74 35 3d 67 85 a8 be 3e fa 1b 3e
       0.055050664 0.044300217 -0.32914278 0.15232179
000360 38 17 10 3d db 3d 76 bc 1b d4 62 3d b7 64 ae 3d
       0.035178393 -0.015029396 0.05537806 0.085153036
000370 4e 5b 5b 3d 63 3b ab bd 90 d6 01 3c ab 5c d7 be
       0.05355387 -0.083609365 0.007924691 -0.42062888
000380 23 13 34 3d 1c 57 e4 3d 6e 5b 1f 3e d8 ef 4c bd
       0.043963563 0.11149427 0.15562221 -0.05003342
000390 e0 17 fb bc af 58 3c bf b9 c6 89 bd ac b5 5b 3e
       -0.030651033 -0.7357282 -0.067273565 0.21456021
0003a0 cf 38 7f bd 67 b4 b4 3d a0 9a e2 be 55 c8 b4 bd
       -0.062310036 0.088234715 -0.44258595 -0.08827273
0003b0 12 cc 6e 3e 24 f9 9f 3d 8b c5 03 3f a0 d9 23 bb
       0.23320034 0.07811192 0.514733 -0.002500154
0003c0 25 30 a4 be 2e 32 4e 3d d8 50 15 bd 5f 03 5f 3d
       -0.3206798 0.050340824 -0.03645405 0.054446574
0003d0 48 be 93 bc 06 f0 cf 3e e0 1f 8a 3b f0 b9 d6 be
       -0.01803507 0.4061281 0.0042152256 -0.41938734
0003e0 49 77 af 3d c0 76 74 3e d0 19 fc 3c 7c 72 de 3c
       0.08567674 0.23873425 0.030774027 0.0271542
0003f0 1a 54 90 bd 9f 06 4d bf 05 99 b3 bd ea d4 94 bd
       -0.07047291 -0.8008823 -0.087694205 -0.07267173

model.2.bias f4 [128]
000000 bb a9 b2 bd ef 41 01 3e 96 99 94 bd f8 bc 08 3e
       -0.0872378 0.12622808 -0.07255857 0.13353336
000010 d4 b3 af bc 21 01 0f bd 95 ad 5d bd c9 19 9a 3d
       -0.021448053 -0.034913186 -0.05412062 0.075244494
000020 f3 bd 05 3e d2 a3 a3 3c 34 6c 01 bd f4 7b b9 bd
       0.13060741 0.019975577 -0.03159733 -0.09056845
000030 94 34 17 b9 68 19 d1 3d 40 d5 13 3e 46 43 84 bd
       -0.00014420069 0.10209924 0.14436817 -0.06458144
000040 e9 9b ee 3d 8c 60 ad bc c5 1b e5 b9 99 81 48 3d
       0.11650831 -0.021164201 -0.00043698974 0.04895172
000050 6c d2 41 bd 9e a1 5a 3d d6 b5 93 bd 75 51 62 3e
       -0.047319815 0.053376786 -0.07212417 0.22101386
000060 57 11 6d bc 02 32 bf bc cf 84 57 bd b4 0a 09 3e
       -0.014469466 -0.023339275 -0.05261689 0.13382989
000070 f8 cb 2a bd f3 08 6c bb cc 5a 4a bc 85 b3 42 bd
       -0.041698426 -0.0036016076 -0.012350749 -0.047534484
000080 28 20 bd bc a4 a7 5d 3d 0a 02 b6 bc d3 da 38 3b
       -0.023086622 0.054114953 -0.02221777 0.0028206601
000090 d3 07 27 3d 18 4c ff bc 8e 63 58 bc 95 c4 af 3d
       0.040778946 -0.031164214 -0.013207329 0.08582417
0000a0 d0 13 51 3d 34 94 54 3e 7e 76 89 3d 85 98 92 3c
       0.051044285 0.2075966 0.06712054 0.017894993
0000b0 90 64 29 3e 92 8b 4b 3d 90 02 b5 bd 05 e5 6c 3d
       0.16542268 0.04969365 -0.088383794 0.057835598
0000c0 29 07 24 bc b0 18 36 3d d2 47 9e 3d ed fe 94 3d
       -0.010011473 0.044457138 0.077285424 0.07275186
0000d0 2e d7 bb 3c 2c 57 c6 bc 6d 49 42 bd de 1a 70 bd
       0.022929754 -0.024211489 -0.047433306 -0.058619373
0000e0 73 27 84 bd b6 91 51 3e bd 8c f2 3b 52 17 a9 3d
       -0.06452837 0.2046574 0.007402031 0.08256401
0000f0 95 c7 04 3e 60 49 08 3e c6 6b bc 3d aa 7b 32 3d
       0.1296676 0.1330924 0.09200244 0.043574966
000100 06 a5 35 3d 46 4f 64 3d d8 43 76 bd d7 a8 4d 3d
       0.04434683 0.055739664 -0.060123295 0.050209846
000110 08 6a ab 3c 41 b0 a4 3d 8b 7a 01 bb a1 a4 42 bc
       0.020924583 0.0804143 -0.001975688 -0.011880071
000120 00 99 a7 3b b6 18 36 bd 79 d5 22 3e 93 77 cd 3d
       0.0051146746 -0.04445716 0.15901746 0.100325726
000130 85 69 fe bc 92 ee 68 3e dc a1 60 3d ab 26 73 3e
       -0.031056175 0.22747257 0.05484186 0.2374522
000140 72 fb 4e bd cb 67 29 3d e0 1a ca 3d d4 40 ec 3c
       -0.050532766 0.04135875 0.09868407 0.028839506
000150 21 19 f8 3c a5 89 9c bd 1d f4 2d 3e a5 32 57 bd
       0.03028542 -0.07643441 0.16987653 -0.052538533
000160 a3 9f 3e bd af 41 27 bd 2f 68 81 3d be 69 47 bd
       -0.04653896 -0.040834125 0.063186996 -0.048684828
000170 dd d3 f0 bd 24 df fb bd 96 9d 72 3d 92 16 08 3d
       -0.1175916 -0.1229842 0.059232317 0.03322465
000180 92 31 a4 3d e6 30 87 3e 3c 9d 2a 3e cf dc 05 bd
       0.08017267 0.26404494 0.16661543 -0.032681283
000190 02 32 08 bc 16 e1 f2 3d 01 70 60 bc c3 8d c2 bc
       -0.008312704 0.11859338 -0.013698579 -0.023749238
0001a0 ac 00 e7 bc 2b a4 a4 bd fd 71 db 3c 9f 13 8b 3d
       -0.028198563 -0.08039125 0.026787752 0.06790852
0001b0 39 98 ec 3c aa 1c ed bc 6f d5 29 3e 71 5b 4d bd
       0.02888118 -0.028944332 0.16585325 -0.050136033
0001c0 08 08 7d bd 41 23 26 3d e3 38 0b 3e 5b c7 7d 3e
       -0.061775237 0.040560964 0.1359592 0.2478308
0001d0 9d 56 ed 3d f1 64 b1 bd fb 12 87 3d 75 a3 c3 3c
       0.11588786 -0.08661831 0.06595417 0.023881653
0001e0 5b ec 7d 3d 45 88 0e bd 20 ac 8d 3e 87 19 55 3d
       0.061992984 -0.034797926 0.27670383 0.052026298
0001f0 8f 87 d8 3b 9c 3f 61 bd e5 fb fe 3c 70 b1 78 3d
       0.0066079567 -0.054992303 0.031125972 0.060716093

model.4.weight f4 [64, 128]
000000 48 5f 90 3d d3 16 0f 3f cf 36 98 bd e2 a0 1b be
       0.070494235 0.558942 -0.07432329 -0.1519809
000010 3c 4e 32 3e 0a 37 b2 bd a8 fd 4e bc c6 e4 3e 3d
       0.17412657 -0.08701904 -0.012633719 0.046604894
000020 53 fb 11 3f a2 05 9a 3d 49 4b 7e bd 44 ab 83 bc
       0.57024115 0.075206056 -0.062083516 -0.016072877
000030 e2 cd 00 3f 64 d5 02 3e 1e 35 e2 bd 8d 4b 7f bd
       0.5031415 0.12776715 -0.110452875 -0.06232791
000040 52 60 c0 3e 03 06 21 3d a4 4e 09 3e 08 04 0d 3d
       0.37573487 0.039312374 0.13408905 0.034427673
000050 d8 51 7f 3e 5d 9c 85 3d 67 89 5f bd fc 78 1f 3e
       0.24933565 0.065239646 -0.054574396 0.15573496
000060 25 da 07 3e fd e2 3d be 2e 3d 91 3b 31 58 12 3f
       0.1326681 -0.1854362 0.004432342 0.5716582
000070 d3 26 80 3d da 47 66 bd 78 23 9f bd 2c 69 c3 bc
       0.06257405 -0.056220867 -0.07770437 -0.02385386
000080 d2 f0 52 ba be da 69 bd f0 c6 87 3d 9f 9c 88 3d
       -0.0008046749 -0.057093374 0.06629741 0.06670498
000090 19 70 34 3d b4 66 c1 ba b5 00 ab 3e 1c f8 cf bc
       0.044052217 -0.0014755339 0.33398977 -0.025386862
0000a0 56 c6 08 3e 26 d1 f3 bd d4 5b b1 bd 12 09 87 bd
       0.13356909 -0.11905126 -0.08660093 -0.06593527
0000b0 fe fb d9 be e4 3f 88 bd bb 2e 9a ba e9 30 89 bd
       -0.42575067 -0.06652811 -0.0011763194 -0.06698782
0000c0 f6 90 17 bd e8 f9 ae 3c 04 5b 61 3d 88 1a ab bd
       -0.03700348 0.021359399 0.05501844 -0.0835467
0000d0 95 11 65 3d 55 26 5b bc d4 1b ee bc ec d6 e3 bc
       0.05592497 -0.013375838 -0.029066004 -0.027812444
0000e0 b1 86 79 3b 78 02 07 be d7 0f a4 bd 5b d5 1d be
       0.0038074667 -0.13184536 -0.08010834 -0.1541342
0000f0 eb 8b aa 3d f9 9a 1b 3d c6 98 8f be 08 8f 6a bd
       0.083274685 0.03798959 -0.28046244 -0.05726531
000100 c5 8d 6c 3d 28 54 91 bc 7c f5 23 3e 29 0f 6b bd
       0.05775239 -0.017740324 0.16011614 -0.057387505
000110 5b c2 b3 bd 6a 7d e9 bc f0 1c 69 3d 28 34 a9 be
       -0.08777305 -0.028502185 0.056912363 -0.33047605
000120 ab 2a af 3e a0 5b 97 bb e0 13 75 be 8e 09 06 3e
       0.3421224 -0.004619077 -0.23933363 0.13089582
000130 5b c1 7c 3d 7b 99 08 be 08 a6 9f bd d1 db e3 be
       0.061707836 -0.13339798 -0.0779534 -0.44503644
000140 b0 22 52 bd 97 22 0b 3e c3 05 53 be 27 8e a5 bd
       -0.05130261 0.13587414 -0.20607667 -0.08083754
000150 4f c7 b5 bd 40 a1 a0 3c 43 d2 3a 3e e7 c1 54 bd
       -0.08875906 0.01960814 0.18244271 -0.051942732
000160 99 9e af 3d b4 a0 91 bc 48 1a 8d 3c e0 e8 8e ba
       0.08575172 -0.017776825 0.017224446 -0.0010903142
000170 d3 06 90 bd 44 4c b8 bd 81 5c 82 3d 02 02 f9 3d
       -0.070325516 -0.089989215 0.063653 0.12158586
000180 ea 44 c8 3e 81 f3 23 bb d9 14 cf be 7d cd e0 3b
       0.39115077 -0.0025016966 -0.40445593 0.0068604336
000190 be c0 a7 3e 2f 5a bd 3c fa f5 1a 3d 40 38 a5 bd
       0.32764238 0.023114292 0.037832238 -0.080673695
0001a0 61 16 41 bc 30 42 19 3b 4e 35 ab bd fe c1 58 be
       -0.011785121 0.0023385398 -0.083597764 -0.21167752
0001b0 e6 73 4b 3d 87 03 1f 3d 2e f5 e4 be c1 00 72 bd
       0.049671076 0.038821723 -0.44718307 -0.05908275
0001c0 e6 22 a7 3d e3 76 b6 3c 31 56 27 3e cf ad 1e bd
       0.08160953 0.022273486 0.16341473 -0.038739976
0001d0 e5 53 8e 3d d4 e6 b0 bc 63 4e 9f bd db a3 db bb
       0.06949595 -0.021594442 -0.07778623 -0.0067028827
0001e0 6f 33 76 3d a0 3b 9a 3e 7f 32 53 be 76 08 30 3d
       0.060107645 0.30123615 -0.20624731 0.04297682
0001f0 13 cd 19 bd 5a 36 1c bd 0a 81 b8 bd 2e c6 37 be
       -0.03754909 -0.03813777 -0.09008987 -0.17946693
000200 85 a4 8a bd 37 a0 36 3b d7 a7 4a 3d 8e 0f 2c 3e
       -0.06769661 0.0027866492 0.04947647 0.16802809
000210 51 b9 1f 3d 28 a9 fe 3d 16 c5 73 3d ae f4 35 bd
       0.03899509 0.12434608 0.059514128 -0.044422798
000220 15 d3 9a be 4b 74 29 3a 0d 02 88 bd da f9 ef 3a
       -0.30239168 0.00064641674 -0.06641016 0.0018308714
000230 b1 71 70 be 61 54 3b be 31 3c 2c 3c 64 87 2b 3c
       -0.2348087 -0.18293907 0.010512398 0.010469291
000240 74 4e 78 be 61 0d ae bc b7 d9 1c 3e c7 55 11 3e
       -0.24248677 -0.021246614 0.15317427 0.14192878
000250 01 aa a2 ba 29 eb 84 bd fc 4d 53 3d 73 e9 e4 be
       -0.0012410284 -0.06490166 0.051588044 -0.44709358
000260 f9 cf be be 79 da b3 bc b7 ab b5 3c 81 8d f5 bd
       -0.37268046 -0.021954762 0.022176607 -0.1198988
000270 05 dd a4 3d 3b bf 32 bd 06 2c 54 ba ac 48 e9 3c
       0.08049969 -0.043639403 -0.0008093718 0.028477035
000280 ec 89 94 3d e2 e2 1d ba f4 75 a6 38 31 e7 aa 3d
       0.07252869 -0.0006022883 7.937467e-05 0.083448775
000290 82 1b 1b 3e 16 70 92 3d 4f 49 64 be fb 8f 4d bd
       0.15147212 0.07150285 -0.2229359 -0.05018614
0002a0 08 33 5e be ec f1 23 3e 91 26 ca ba 19 99 2f bd
       -0.21699154 0.16010255 -0.0015422871 -0.042870615
0002b0 2c 25 4a 3e f2 05 46 3d 05 39 95 bd 3f e4 61 3d
       0.19740742 0.048345514 -0.07286266 0.055149313
0002c0 1c bb 62 3c df 29 33 bd 5c 47 4f 3d d0 77 32 3d
       0.013838556 -0.043741103 0.050605163 0.043571293
0002d0 02 40 9b be 0e 17 8d 3d bc 03 a5 3d b0 57 6c 3d
       -0.30322272 0.06889163 0.08057353 0.057700813
0002e0 e8 bb 85 bc c6 c5 d9 3d 63 fb 4b bd 45 66 21 3d
       -0.016324952 0.106334254 -0.049800288 0.039404172
0002f0 54 a0 aa 3c 25 10 01 3e d5 27 07 3f de 1b 4d 3d
       0.020828404 0.12603815 0.52795154 0.050075404
000300 c3 7b 41 bd 82 1c 70 3d c8 d4 bf 3d 8e 8c 5c bd
       -0.04723717 0.058620937 0.09366757 -0.05384498
000310 ef ec 83 3d b2 9d 85 bd a3 e0 f3 3d 2e 2b 2c be
       0.06441676 -0.065242186 0.119080804 -0.16813347
000320 69 a3 7c be 86 11 27 3d 40 a7 5b 3e 5a 25 59 3d
       -0.24671711 0.040788196 0.2145052 0.053014137
000330 06 e8 b4 39 bb 36 6e 3d 39 87 cd 3d 3d be 5e 3e
       0.00034505146 0.058157664 0.10035557 0.21752258
000340 72 d0 81 3d 04 21 a3 be e4 06 0b bd 30 67 85 bc
       0.06338586 -0.31861126 -0.03394212 -0.016284555
000350 10 d0 d8 3c 2a 9e 85 bd 92 42 d2 be e8 fb ac 3d
       0.0264664 -0.06524308 -0.41066414 0.08446485
000360 d6 96 ab bd 89 ff 60 3d 66 67 0a 3d 7e 2f 33 3c
       -0.08378379 0.054931197 0.033790015 0.010936616
000370 18 db bf 3d 26 75 45 3d 77 f1 ad 3d 95 c2 de bd
       0.09367961 0.048207425 0.084933214 -0.10876957
000380 93 5f c4 3a f5 f5 d1 3d 2a 7d a1 3d 7e 0f b7 bd
       0.0014982097 0.10251991 0.07885201 -0.08938502
000390 5d 7a d6 be 7d 78 98 3c 7b 85 65 3d 1c 5e 42 bc
       -0.4189023 0.01861214 0.0560355 -0.011863258
0003a0 18 32 83 3d 67 11 a4 3d af ca 8e 3d f3 da 7d be
       0.06406039 0.08011132 0.069722526 -0.24790554
0003b0 71 de 02 3d 6f 90 cf 3d d7 60 8c 3e a3 7d a1 3d
       0.031950418 0.101349704 0.27417633 0.078852914
0003c0 37 f2 62 bb c6 02 c0 3d 34 33 a4 be 4d 6f 99 3d
       -0.0034629235 0.09375529 -0.32070315 0.07491932
0003d0 f4 36 0d bc b1 cf ff bb 19 60 81 bd fd 14 59 3d
       -0.008619059 -0.007806741 -0.06317157 0.05299853
0003e0 21 3b 8a bd 16 0c df be 9b 01 b6 3d 7f ae 93 3d
       -0.06749559 -0.43563908 0.08887025 0.07211017
0003f0 82 78 7d bd c5 e3 a2 bc 29 89 12 3d 52 a0 3b 3a
       -0.061882503 -0.019884 0.035775337 0.00071573735

model.4.bias f4 [64]
000000 84 84 70 bd 47 ba 16 3e d1 79 ef bc ad 1a 73 bd
       -0.058720127 0.14719497 -0.029232891 -0.059351612
000010 ad f7 fc bc 86 d1 16 3d a5 1d 3e bd b1 3c 8e 3d
       -0.03087982 0.03682091 -0.04641499 0.0694517
000020 59 20 6a 3d c1 72 28 3d 06 4a 87 bc 63 f4 85 bc
       0.057159755 0.041125063 -0.01651479 -0.016351884
000030 13 30 54 bd 9d 36 a7 bd 21 1b 7f 3d cc 36 b2 bd
       -0.05180366 -0.081647135 0.06228173 -0.08701858
000040 b2 7d aa bc e8 2a e4 3c 44 77 92 bd 9d 4d fa 3c
       -0.02081189 0.02785249 -0.07151654 0.030554587
000050 d0 67 13 3c 3b 39 8d bd 6a 2b a3 bd a1 3e 13 bb
       0.008996919 -0.068956815 -0.07967265 -0.002246775
000060 61 87 dd 3c e3 19 b3 bc af 52 8d bd 76 5c d1 bd
       0.027042093 -0.02186293 -0.06900536 -0.10222714
000070 f5 86 e9 bd f3 a7 85 bd 30 6f 4d bd c1 5d 08 be
       -0.11402694 -0.065261744 -0.050154865 -0.13317014
000080 dc 46 ee bb e8 92 59 3d 13 5e 95 bc 35 b4 9f 3c
       -0.0072716307 0.053118616 -0.018233335 0.01949511
000090 91 82 2f 3d bd 2a a4 bc 5a dd e4 3d 0a 7a 12 be
       0.042849127 -0.02003991 0.11175032 -0.14304367
0000a0 6c c7 69 bd 11 85 20 bd fd 5d b1 39 1b 63 4a 3e
       -0.05707495 -0.039189402 0.00033830098 0.19764368
0000b0 8c cd 0a 3e 7f 05 bc bd 69 83 5f 3c ae bf 62 bd
       0.13554972 -0.09180736 0.0136421705 -0.05535858
0000c0 6e 14 d0 bd 90 12 8c 3d 03 5d 43 3b ac 65 62 bd
       -0.10160147 0.06839478 0.0029810078 -0.055272743
0000d0 3b 6c 20 3d 70 53 cf bc e9 0c a9 3d 1b 5a 8e 3c
       0.039165717 -0.02530834 0.082544155 0.01737695
0000e0 34 b0 a1 bd 2f ed 9f bd a7 48 20 be 6a 1b 73 bd
       -0.07894936 -0.07808911 -0.15652715 -0.059352316
0000f0 c9 fc 90 3d 6d 03 a1 bd 60 14 9c 3c bb 38 84 bd
       0.07079465 -0.078619815 0.019052684 -0.06456133

model.6.weight f4 [7, 64]
000000 dd e4 2b bf 4e 9e 86 3e 80 51 d8 bd a0 fa cd be
       -0.6714609 0.26292652 -0.1056242 -0.40230274
000010 a7 d2 29 be 0f 0d e6 bb e5 46 f0 3d b7 0d cb 3c
       -0.16584264 -0.0070205997 0.11732272 0.024786813
000020 3b b4 73 3e ea c8 c9 bd e5 68 d9 bd ad 03 22 3e
       0.23799221 -0.098527744 -0.1061571 0.15821715
000030 c2 9d 35 bf 44 fa ae be 09 a7 d3 bc a3 e9 c5 be
       -0.70943844 -0.34175313 -0.025836485 -0.38654813
000040 b2 da 1c be 3f 81 d1 3d a7 56 6f 3d 2d dc 25 bf
       -0.153178 0.1022973 0.058432247 -0.64789087
000050 64 92 10 bd 7e a1 2b bf 91 0f 8a bd d1 1e e6 3e
       -0.03529586 -0.6704329 -0.0674125 0.44945386
000060 b4 ad 3a 3d 48 41 d9 bd 92 43 af bd ef 8f 02 bf
       0.045575812 -0.106081545 -0.0855781 -0.51000875
000070 36 94 f6 bd cb fd 07 be b2 c9 d1 3d 51 b3 27 bf
       -0.12039988 -0.13280408 0.102435485 -0.6550799
000080 70 ef 54 3d 89 a6 26 bc d8 22 44 be 51 89 e8 bd
       0.051986158 -0.010171541 -0.19153917 -0.11354316
000090 08 ca ca bd 24 88 f6 bd 34 60 98 3e 04 e4 06 3d
       -0.09901816 -0.120376855 0.29760897 0.032932296
0000a0 8f 1a c1 be 06 00 f5 bd b6 59 de bd 2c a2 e6 3d
       -0.37715575 -0.11962895 -0.10856955 0.112614006
0000b0 b3 37 24 3e f4 2a 1a be c6 8d 32 be aa 6b f5 be
       0.16036873 -0.15055448 -0.17436895 -0.47933704
0000c0 22 4d f6 be 7e 90 91 3d c5 f4 b9 3b 29 e4 8a bc
       -0.48105723 0.07107638 0.0056749308 -0.016954498
0000d0 3f 35 10 be 7c 88 2c be e5 78 28 be c1 00 db be
       -0.14082812 -0.1684894 -0.16452368 -0.42774013
0000e0 e5 b6 b8 3c f5 e2 26 be a1 58 8b be 07 3c cf 3d
       0.022548148 -0.16297515 -0.27216056 0.10118871
0000f0 75 4d 35 bd 5e 0c 55 bf e8 d8 b4 bb ad 2a 1a be
       -0.044263322 -0.83221996 -0.0055190213 -0.15055342
000100 73 53 21 bf 2b 71 66 3e 2d 14 b3 bd 5e 7d e5 be
       -0.6301796 0.22504108 -0.087440826 -0.4482221
000110 c1 70 f1 bd d9 02 0a bd ec 14 bb bc 08 0d 9c 3d
       -0.11789084 -0.033694122 -0.022837125 0.07619673
000120 11 eb a0 3e be 64 54 bc 70 f2 29 be 87 73 24 3d
       0.3142934 -0.012963472 -0.16596389 0.040149238
000130 90 7e 13 bf b8 dc 26 be 31 49 4a 3a a7 af 8d be
       -0.57614994 -0.16295135 0.0007716595 -0.27673075
000140 8b 78 85 3c bc b3 b2 3d f0 d2 f0 3c 97 1d 07 bf
       0.01629283 0.08725688 0.029397458 -0.52779526
000150 aa 6b ea bd 16 7e 27 bf cd 16 4c be 96 1c ee 3e
       -0.114463165 -0.65426767 -0.19930573 0.46506184
000160 af 88 44 3d ca ff 60 bd 5a 59 64 be a4 88 c4 be
       0.047981914 -0.05493144 -0.2229971 -0.383855
000170 b3 40 43 be 55 ed 10 be e0 d7 dd bb 6f 92 0c bf
       -0.1906765 -0.14153035 -0.006770119 -0.5491094
000180 c2 ce 20 3d 05 3e 62 3d e7 62 a3 be 03 d8 7d 3d
       0.03925968 0.055234928 -0.31911394 0.061973583
000190 eb 41 21 3c 75 49 18 3c 6d ab 9e 3e 23 2a 09 be
       0.009842376 0.009294857 0.30990162 -0.1339498
0001a0 d8 67 8f be f0 3e 10 be 3c 5b 87 bd 49 4d 03 3e
       -0.28008914 -0.14086509 -0.066091985 0.1282245
0001b0 12 df ee 3d 16 06 31 be 40 59 f1 bd f8 7b f7 be
       0.11663641 -0.17287478 -0.11784601 -0.48336768
0001c0 b2 cd 10 bf 7e d2 2c bd 3b b0 9c bd 1e 52 42 bc
       -0.56563866 -0.04219293 -0.07650801 -0.011860399
0001d0 e5 dd 38 be 8d 6b 4c be 70 64 0b be 68 86 02 bf
       -0.18053396 -0.19962902 -0.13612533 -0.5098634
0001e0 00 a8 5b bd b7 12 0a 3c 78 0a cf be 47 ff d3 bc
       -0.053627014 0.0084273135 -0.40437675 -0.025878562
0001f0 99 aa 8c 3d 88 92 3a bf 8a ca 2e be 96 40 a7 bb
       0.068684764 -0.7287984 -0.1706945 -0.005104135
000200 a1 f4 15 bf 0d d1 b1 3d e0 db c2 bd 84 79 c3 be
       -0.585764 0.086824514 -0.09514594 -0.38178647
000210 ca 83 06 bd d3 5e 72 3d 86 d7 66 bd ed d7 50 3c
       -0.032840528 0.059172463 -0.056357883 0.012746793
000220 f4 5b e2 3e 06 0b ad 3d ad ef 3a be fe 7c 02 bd
       0.4421078 0.08449368 -0.18255492 -0.031857483
000230 0a cd 45 bf 7e e0 6e be 10 a0 86 bb 46 be b0 be
       -0.7726599 -0.23327824 -0.0041084364 -0.34520167
000240 aa 7d 01 bd 2a 37 f7 3c 21 81 be bc 69 a5 f0 be
       -0.031613983 0.030177671 -0.023254933 -0.47001198
000250 30 06 84 bd 8d b9 19 bf 11 68 34 be 13 a6 f9 3e
       -0.06446493 -0.60048753 -0.17617823 0.48759517
000260 35 2b 1c 3c ed 84 80 ba cd 0d 2a be 76 49 d0 be
       0.009531786 -0.000980524 -0.16606827 -0.40681046
000270 ec 00 75 be 52 62 6f be 47 04 42 3c dc ff 1c bf
       -0.23926133 -0.2337735 0.01184184 -0.6132791
000280 b7 f0 f1 bc 8d 3a d9 bd 7f 7c f6 be bc 84 b0 bd
       -0.029533727 -0.10606871 -0.48141858 -0.08619067
000290 5f 70 a7 bd c7 16 e7 3d 35 ba 9d 3e 89 19 cb bd
       -0.0817573 0.11283641 0.30806127 -0.0991698
0002a0 26 50 8d be 15 20 6b be 06 34 aa 3d a6 4e 3e 3e
       -0.2760021 -0.22961457 0.08310704 0.1858469
0002b0 67 a4 e9 3d 2e 31 52 bd b6 b4 d5 bd b4 7c 98 be
       0.114083104 -0.051316433 -0.104348585 -0.2978264
0002c0 a5 e5 1f bf 98 96 fb bd 55 08 24 be 4c b7 c9 bd
       -0.62459785 -0.12284583 -0.16018803 -0.09849414
0002d0 5e 5c e9 3b d1 8c 36 be a1 f6 d0 bd 47 da 10 bf
       0.0071216067 -0.17827155 -0.10203291 -0.56583065
0002e0 ed 0e e6 bd 23 36 88 bd ba 4b a4 be 9c 85 98 3d
       -0.112333156 -0.06650951 -0.32089025 0.07447359
0002f0 41 ae 7e bc c1 60 3c bf 98 ca 9d bd d8 8c 1c be
       -0.015544475 -0.73585135 -0.07704657 -0.15288103
000300 4c 8f 2b bf 3c ea 8b 3d c4 dc df bd f9 0e dc be
       -0.6701553 0.06831786 -0.109307796 -0.42980173
000310 da a8 4c be 71 39 83 bc 54 91 85 bc 85 d0 d3 3d
       -0.19986287 -0.016018601 -0.01630465 0.10342506
000320 e0 bb ae 3e 05 77 bc 3d d0 b1 38 be ed d0 fe 3d
       0.34127712 0.09202389 -0.1803658 0.12442193
000330 7d 3f 4f bf c0 b4 34 be f5 f1 2d bb 59 2d 01 bf
       -0.8095625 -0.17647076 -0.0026541923 -0.5045982
000340 cd af ac bd 43 e0 9c 3d 77 bb 07 bd ff 2c 8e be
       -0.08431969 0.07659962 -0.033137765 -0.27768704
000350 00 ec c9 3b 20 70 e6 be 07 16 2d 3b 7b 94 91 3e
       0.0061621666 -0.4500742 0.0026410834 0.28433594
000360 d8 cb d6 3c 40 13 58 bc cd bf af bd f0 ff 96 be
       0.026220247 -0.013188183 -0.08581505 -0.2949214
000370 24 71 80 bd 8e c2 43 be c8 ad 6b 3d 81 f1 36 bf
       -0.0627158 -0.19117185 0.057538778 -0.71462256
000380 84 2c e1 bc c2 12 e3 3b f8 f3 ed be 13 36 74 bd
       -0.027487047 0.0069297263 -0.46475196 -0.05962188
000390 1e 19 8d 3d 37 41 10 3d aa ea 90 3e 7e 8b 2f be
       0.06889556 0.035218444 0.28304034 -0.17143056
0003a0 00 48 c2 be 95 e0 0a be 14 eb 86 bd fb 83 3e 3e
       -0.37945557 -0.13562234 -0.06587806 0.18605034
0003b0 63 43 2c 3e d2 eb 64 be eb ee 26 be fa d9 18 bf
       0.16822581 -0.22355583 -0.16302077 -0.59707606
0003c0 c3 68 0d bf 28 7c b9 3d 93 72 01 be 88 72 07 3d
       -0.5523798 0.09056884 -0.12641363 0.03306821
0003d0 e3 87 24 be 33 ea f0 3c ac b0 3c be 32 ea 2e bf
       -0.16067462 0.02940855 -0.1842677 -0.68326104
0003e0 a0 7c 1b 3a 4a 2b 42 be 82 6d c6 be fa 1f b9 3b
       0.00059313513 -0.18961826 -0.38755423 0.005649564
0003f0 d1 54 e3 3c e2 5f 54 bf 76 b6 fb bd d4 ba 06 be
       0.027750405 -0.82958806 -0.12290661 -0.13157207

model.6.bias f4 [7]
000000 d1 7d 8c bd 0a fe 43 bd 72 b0 19 bc f1 d6 26 3e
       -0.06859935 -0.047849692 -0.009380447 0.16292931
000010 72 00 b6 bd 76 44 c9 bc 49 eb 00 3d
       -0.08886804 -0.024568778 0.031474385
