ReinforcementLearning/models/TrainedModel.pth (torch, 110465 bytes, 8 tensors)

model.0.weight f4 [128, 12]
00000000: 7f2c 66be 7948 453e bc35 653e 2c4c e93d
00000010: 8a01 5f3e 05e7 38be d9fa e33e fba4 4a3e
00000020: f03f 933d 81e4 68be 3763 dd3e 6419 2d3e
00000030: 0f87 f1bc 50c3 a33e e41d 153d 9357 183e
00000040: a233 7a3e 6d10 873e ca73 ab3d 7e7c 063e
00000050: 75d2 ed3d 57c1 a23d 6ef3 81bd 93db 14bd
00000060: 02b6 3f3e d0f6 cdbe 3d34 f1bd a7d8 9b3e
00000070: a782 fa3d 5598 1abe 1ef6 383d 6619 c8bd
00000080: 256d 25be aa27 03bf aa1e b8be 554d 81be
00000090: 95b5 6a3d 7e33 103e 4f14 653f b881 c73d
000000a0: 7072 de3c 34b0 383e 53c3 663f 39e7 cc3b
000000b0: fcd4 10be f38a 853d 7710 073f 94e0 e73c
000000c0: 9c2e 703e 2256 63be 04ff d5bd c072 67bc
000000d0: 80f4 89bd 1e29 0e3e 30c4 1fbe a05f 04bd
000000e0: e4be 86be 0c20 8dbe 845b bbbd 3c4a 90be
000000f0: 4f03 71be 8102 8d3e fb9d a23e aa1e 10be
00000100: 472f 29be 94f2 9e3d cec9 d73e 6700 31be
00000110: d19e 133e a820 e23d 354a bebc e1dd 96bd
00000120: 7c8f 8f3e aa60 833e f13c 8a3d 6527 c1bd
00000130: 164d 303b 977b 7f3e 255e d8be 0388 ce3d
00000140: cc81 c1bd f572 093d b581 a0be 3049 863e
00000150: 5014 39be 28ad e7bd 0057 4b3e 40a9 4e3c
00000160: 6277 f9bd 24c3 3abe 1c2d 86be 3ae6 dbbd
00000170: cee4 38be 04de 8a3d 8e11 453e 44e4 75be
00000180: e1ce 483e d1c5 d93e 51db d83c 5e66 2dbd
00000190: 4562 803e 0908 a5bb c131 d63d 054f dabd
000001a0: c9d6 e13d 1809 a43e 69dc 94be 30a9 5dbd
000001b0: 61d9 2fbe 451e a7bc b6b4 d83d d1c7 b03d
000001c0: 90ed 01bc 1d72 b8be fdcd d53e 5a45 ed3d
000001d0: 86fa a23e c897 c3bd cdc9 163e dd0b 8fbd
000001e0: c430 3e3e e293 0cbd 666a 483e 7637 683d
000001f0: 4046 96bd 00fa 1c3e 224e 96bd b9c1 76bd
00000200: 6a99 3ebe 2499 7d3e fa1f 0b3e 618f 1ebe
00000210: 01ba 3bbe 12f4 c9bd d865 d1be fce3 b3bd
00000220: 0762 1ebd e8de 803e 7be7 5fbe 8347 d8bd
00000230: bf01 993e 8da7 853e c946 ee3c 1a85 95bd
00000240: 4302 83be 34a3 cdbd ae2f a7be 395d 263e
00000250: 0b66 973e 9f06 16be 660c 05bc 5d61 383d
00000260: 75aa 933e b898 843d 42fd 9b3d 6b66 e73d
00000270: 5ad0 c73d b930 ad3c 0e1a 223e e196 3c3e
00000280: b7ed 043c d029 6d3e e47a e43d c755 bb3d
00000290: 4441 a13d 7d42 c63e 5c7e 223e 01b7 13bd
000002a0: 77b3 dfbd b062 d5bd 2027 a4bc 331a 383c
000002b0: 8d28 3f3e 2a20 d8be 5307 a03e 5d4e 6a3e
000002c0: f0d9 203d 447d 73be 9afd a53e 152b 7abd
000002d0: ea27 9f3e 49ff 8fbe 6e85 e53d e0ba 9b3e
000002e0: 641b f0bd c481 babd 56bb e93d 4039 b03e
000002f0: b962 133e 78df ccbc 941e d9bc 2482 2c3e
00000300: a32f 14be 0040 6dbe f03d 073d 6021 c03d
00000310: e6f9 133e 82e5 1c3e 8072 b53c d4af 24be
00000320: d025 f9bd 0965 92be 805a bfbb 88e6 7cbe
00000330: 1263 303e 4c0e 1bbf b918 3a3d d519 c23d
00000340: 178c aabd 02a6 19bf c3d3 f4ba 2661 f7bc
00000350: 7863 b33d 5143 60be 028f 823e 2356 37be
00000360: 7bb4 643e ba05 b53e 9b48 37be 3d92 2bbe
00000370: 8246 893c e6e9 b33e 27a3 eebd 902f 29be
00000380: 9089 6c3d 7043 423e 5736 cd3d ceb2 2abe
00000390: 5b33 713e 95a7 d23e b998 9dbe ca39 8ebe
000003a0: 3e64 c83c 6bf6 b53e a88d 203e d949 163e
000003b0: 750c bdbd d024 803e a0a8 4abe 1b74 273e
000003c0: 353c 5e3e 32fd a6be bfb2 8e3e 6290 2f3e
000003d0: 59c5 0d3d b14f 94be cceb d93d 5ae4 6e3d
000003e0: 0db3 853e 915d babe 307f a83e 91f8 993e
000003f0: 8fe0 b6bd 4813 323d 317b 81bd 619d 893c
-0.22477911 0.19265927 0.2238378 0.11391482 0.21777931 -0.18056877 0.4452732 0.19789498
0.071899295 -0.22743417 0.43239757 0.16904217 -0.029483346 0.3198495 0.03640546 0.14877157
0.24433759 0.2637972 0.083716944 0.13133428 0.11612407 0.07947033 -0.06345259 -0.036342215
0.18721774 -0.40227365 -0.11777542 0.3043873 0.12231951 -0.15097173 0.04515659 -0.09770469
-0.16154917 -0.512324 -0.35960895 -0.25254312 0.057302076 0.14082143 0.89484113 0.09741539
0.027154177 0.18035966 0.9014179 0.00625315 -0.14143747 0.06520643 0.527595 0.02830533
0.2345528 -0.22200826 -0.10449031 -0.01412648 -0.06736088 0.13882872 -0.15602183 -0.032317758
-0.26317513 -0.27563512 -0.091483146 -0.28181636 -0.23536418 0.27540973 0.31761155 -0.14074197
-0.16521941 0.07761112 0.42146152 -0.1728531 0.14416052 0.11041385 -0.023228744 -0.07366539
0.28039157 0.25659686 0.06749905 -0.09431342 0.0026901416 0.2494949 -0.42259327 0.10084536
-0.09448585 0.033556897 -0.3134896 0.26227713 -0.18074155 -0.11312324 0.19857407 0.0126135945
-0.121809736 -0.18238503 -0.2620629 -0.107372716 -0.18056032 0.06780627 0.19244978 -0.24012858
0.19610168 0.42533734 0.026471766 -0.042333953 0.25074974 -0.0050363583 0.104587086 -0.10659603
0.11027295 0.32038188 -0.2907441 -0.054116428 -0.17172767 -0.020400176 0.10581343 0.08631862
-0.0079301745 -0.36024562 0.4175872 0.115854934 0.3183176 -0.09550434 0.14725418 -0.069846846
0.1857329 -0.03432072 0.19571838 0.056693517 -0.07337618 0.15329742 -0.073391214 -0.060243342
-0.1861321 0.2476545 0.13586417 -0.15484382 -0.18332674 -0.09861006 -0.40898013 -0.08783719
-0.038667705 0.25170064 -0.21865647 -0.10560515 0.29884145 0.26104394 0.029086487 -0.07300778
-0.25587663 -0.10040894 -0.32653564 0.16246499 0.2957004 -0.14650963 -0.008120632 0.045014728
0.28840986 0.06474441 0.076166645 0.112988316 0.09756537 0.021141397 0.15830252 0.1841693
0.008113316 0.23160481 0.11156252 0.0914722 0.078737766 0.38722602 0.15868515 -0.036063198
-0.10922902 -0.10419214 -0.020038188 0.011236715 0.18667813 -0.4221204 0.31255588 0.22881456
0.03927034 -0.23778254 0.32420045 -0.061076242 0.3108514 -0.28124455 0.1120709 0.30416012
-0.11723974 -0.09106782 0.114126846 0.34418678 0.14393128 -0.025008902 -0.026503839 0.1684652
-0.14471297 -0.23168945 0.033018053 0.09381366 0.14450797 0.15321925 0.022149324 -0.16082698
-0.12165415 -0.2859271 -0.005839646 -0.24697316 0.17225292 -0.6056869 0.045433734 0.09477583
-0.08327501 -0.6001893 -0.0018678833 -0.030197691 0.087592065 -0.21900679 0.2549973 -0.17903952
0.22334473 0.35355932 -0.1789879 -0.16755004 0.016757254 0.35139388 -0.116522126 -0.1652205
0.057748377 0.18971038 0.1002013 -0.16669771 0.23554747 0.4114348 -0.3078058 -0.27778465
0.024461862 0.35539564 0.15679038 0.14676608 -0.092308916 0.25028086 -0.19790888 0.16352884
0.21702655 -0.32615048 0.27870747 0.17144921 0.034612034 -0.2896705 0.10640678 0.05832324
0.26113167 -0.3639951 0.32909536 0.30072454 -0.0892955 0.04347542 -0.06322325 0.016798677

model.0.bias f4 [128]
00000000: 5f51 e3bc f941 393d 657f 9fbe 152b 523d
00000010: 5c50 e6bd b76c 763d 2b57 983e 1312 08be
00000020: fe30 413d 6558 9d3d 6611 45be 61d9 1dbc
00000030: 1afd 24bd 9462 463e caca 25bd b10e 813d
00000040: 8a10 41be ab83 b4be f766 ce3e 7fb4 d1bd
00000050: 165d 97be a215 c03e 48b9 a83c 33f8 a2be
00000060: 51cb 98bb fec0 adbd 7817 5b3d 30be a23e
00000070: 6145 0abe 42d8 37be 08f0 a2bd 02d9 da3e
00000080: fc78 dcbd cd25 a03e d5ec 71be 9a79 e43d
00000090: 97a1 8c3c 8e45 6ebd 631f 06bf 34b1 023e
000000a0: 18fd 51bd a970 0b3e 01bc 8dbe 8242 77be
000000b0: 8fcb b53e e2d1 563e 166a fdbd d2ac 993e
000000c0: 55e3 3b3d bfb0 c43c 9918 1f3e ecd9 52bd
000000d0: 83d4 a73d 67e9 093e 3817 543e 6e49 8a3e
000000e0: aba3 d7be af5d 49be 64c1 aa3e c496 a53d
000000f0: a95a afbe 711f 293d a9e0 443e 9eb0 c63a
00000100: 4d2b f5bd 90fd e33d f880 a5be 4047 a0bc
00000110: 7e78 243e f522 9cbe ad78 853c 2c6a fabe
00000120: 8c06 943d b4cb 533e 320d 15be 37fb d73e
00000130: a89c 6cbe 8576 373e 929d babe 92b8 5c3c
00000140: d85e 883d eb4e e2be e6e2 d73e 77bc 213e
00000150: d002 48be 5129 89bb 6872 edbd 9431 fabe
00000160: f92a 4b3e 6031 8d3e 70d3 c9be a498 d13d
00000170: 70ed 123e e511 cb3d 8fa0 b23e eff9 373e
00000180: fa2f 883e 22cd 463e 95a3 a33d 35a5 693e
00000190: 987a 8d3e 2ef0 b2bd 5669 5a3e f360 d53c
000001a0: e86c 9fbd ceed 0a3e d124 9d3e 3521 983e
000001b0: 5f0b 11be 17c9 953e 2f31 d93d dbc6 7dbc
000001c0: b0eb ddbd e0b5 283d 4695 78be d740 473e
000001d0: 0d35 d63e 3586 373d f7da 5e3e 9601 38bd
000001e0: e34d 85be 705a 37bd d6c0 5abe 002b 2d3e
000001f0: 285f 0bbe dca6 75be e586 55be 299c ef3d
-0.027748762 0.045228932 -0.31151882 0.051310617 -0.11245796 0.060162272 0.29754004 -0.13288145
0.047165863 0.076828755 -0.19244918 -0.009634347 -0.04028044 0.19373542 -0.040476598 0.0630163
-0.18853965 -0.35256705 0.4031293 -0.10239505 -0.29563206 0.37516505 0.020596161 -0.31829986
-0.004662909 -0.08484076 0.05348918 0.31785727 -0.13503028 -0.1795359 -0.079559386 0.4274369
-0.107652634 0.3127884 -0.236255 0.11156006 0.017166896 -0.0581718 -0.5239164 0.1276291
-0.05126676 0.13617195 -0.27682498 -0.24146464 0.35506865 0.20978501 -0.1237375 0.30014664
0.045871098 0.02401006 0.15536727 -0.051477358 0.0819483 0.13467942 0.20711982 0.27009147
-0.42117056 -0.19664644 0.3335067 0.08085397 -0.34248856 0.04128975 0.19226326 0.0015158837
-0.119711496 0.111323476 -0.32324958 -0.019565225 0.16061589 -0.3049542 0.016292894 -0.48909128
0.07227811 0.20683175 -0.14555815 0.4218385 -0.23106635 0.17916305 -0.36448342 0.013471739
0.06658715 -0.44200835 0.42165297 0.1579455 -0.19532323 -0.0041858335 -0.11594087 -0.4886595
0.19840612 0.27576733 -0.39419127 0.10234192 0.14348388 0.099155225 0.3488812 0.17966436
0.26599103 0.1941419 0.07990185 0.22816928 0.27632594 -0.08737217 0.21329245 0.026047206
-0.07784444 0.13567278 0.3069215 0.29712835 -0.14164494 0.29254982 0.10605084 -0.015489305
-0.108359694 0.041189075 -0.24275693 0.19458328 0.4183735 0.044805724 0.21763216 -0.044923387
-0.26035985 -0.044763982 -0.21362624 0.16910934 -0.13610518 -0.23989433 -0.2085224 0.11699707

model.2.weight f4 [128, 128]
00000000: 4d99 23bd 0a9f 2c3c a41b 5d3d a634 1abf
00000010: e05c 4bbc 2ecb 6bbd ffa2 81bd 637a 9d3d
00000020: fbf2 5e3c f0d2 7a3c 148b de3b 6fdc b4bd
00000030: 6fc1 bcbd 7643 80bc a604 79bc 10f9 8b3c
00000040: 0c44 b63c f6ec 77bd b395 6a3d 40b9 f8bc
00000050: 9b68 78bd c76d 923d b0a0 cfbd bfe2 f43c
00000060: 4988 d5bd 12d4 613d a388 18bd 4f67 a43c
00000070: 700f 7a3c 785c 28bd cd61 b0bc 8050 92bb
00000080: 107c cb3c db62 803d 909a 89bc 0a92 ebbd
00000090: 1fd9 a43d 6b58 2f3e 3335 cd3a 6029 913b
000000a0: a054 84bc 1507 183e 30a7 9d3b 1d40 853d
000000b0: 6447 903d bac7 823d 78dc 5ebd 835d 16be
000000c0: 9737 9a3e 25e3 7f3d b61a e2bc eed1 473d
000000d0: bc88 ed3c 4d0e 5a3e c548 ee3b deba b6bd
000000e0: f6f1 77bd 6aa3 463d c331 e53c 66b5 2abd
000000f0: 3126 48bd 7633 8a3d e419 96bd 1741 963d
00000100: 592a 19bd b383 78bd 08ec 933c 08ba 01bd
00000110: 68ea cebd d65f 02be b688 c03d 7010 113d
00000120: 8028 25ba a1c8 033d 7231 78bd 9c26 b83d
00000130: 49a5 483e be53 a1bc cca1 143c 54ae 1cbf
00000140: 121c 653d d716 373d ccd9 3bbd d375 a7bc
00000150: 7d39 afbd de66 4e3d 9f26 49bd c86c c0bd
00000160: eb47 64be 68e0 be3b e895 96bd b2fa 923d
00000170: c1cf 1ebc 79d3 773b 2a83 0c3d 8384 a5bd
00000180: f6ed 6cbc f2af 833d dc65 c93b 11d8 3a3d
00000190: 9c3f 783d 3f9e 9ebb 6158 7abc 98da 053d
000001a0: c1da 00be a068 8a3d f449 f8ba 3ff1 2a3e
000001b0: b189 86bd a123 babd ef42 1fbc 5f06 d9bd
000001c0: 5244 1a3d 2f5f 0dbe 88cd ffbd 246b b93d
000001d0: ad63 f93c 1217 33bd 2da9 abbd c88d ab3c
000001e0: 6978 94bd 72d5 383d 49a0 f6bd d0cc 263d
000001f0: e812 52bc 656b 2abd 2851 5dbd de70 62bd
00000200: be16 2dbd 3bd4 11bd 4bd1 9a3d 5eba 5d3d
00000210: 8cc3 9f3c aa63 893d e535 a3bd 368f f8bc
00000220: cec7 8d3d fdc2 34bd 7750 7dbd 1397 9bbd
00000230: de78 25bd 345d 65bd ee69 e23c 4cb0 e13c
00000240: 9703 8b3d aaad 89bd d0ea e33c 4d0d a33d
00000250: 5fea 8d3d 456b ba3c 10a9 6e3c a2cc 533d
00000260: 101e ee3b 905b 57bc f31c bbbd 1947 463d
00000270: 0eb7 4b3d 0038 1c38 6c28 9dbb 8fb6 a7bd
00000280: 0c80 71bd a015 23bc 7161 04bd 01cf 8f3d
00000290: 9f2b 9d3d 88da 383d 88c9 89bc 2d12 a2bd
000002a0: ade4 babd 2b85 5cbd c8a2 903c 263d 463d
000002b0: ef1f b83b b611 6abb b36f a0bd 51cb 2f3d
000002c0: aad4 603c 2d10 7bbd 43ea 80bd e0b0 8cbc
000002d0: 020e 84bd 1c33 e6bc bfe4 3c3d 6d46 98bd
000002e0: 4c87 4dbd 0a48 413d 7aed 1c3c d00d dabc
000002f0: 003d 893a 4d3d 98bd 63e9 253d eef6 32bd
00000300: e49b 873c ac8b cfbc 04c0 e5bc b113 a43d
00000310: 6dec 8abd 4d81 9a3d 7596 a9bd e3a6 b13d
00000320: 5439 ea3c b109 c5bc 3afb 123d fcc2 76bc
00000330: 5439 833d 8d0a a13d 0040 933c 6b51 afbd
00000340: e02c 423b 4d90 873d cbd1 d43c 70ac bcbc
00000350: fa3f 6f3d 0db9 423d 34e3 76bc 00d1 77bd
00000360: a5c5 423d 01a6 223d 1c1c ebbc 4a01 0fbc
00000370: d028 dfbc 83e0 84bd 4102 2f3d 0558 81bd
00000380: a6ee 7e3c 1ace 2abd 58b3 963c a3ee 903d
00000390: 511a 75bd 38d0 f13a 01df bdbd 3943 743c
000003a0: 1811 a33c 720b b6bd f821 4bbd e658 72bc
000003b0: a58f 06bd 9b68 54bd 70ae 803c 3de5 a0bd
000003c0: af90 15bd 9d97 71bd 721b 94bd 1998 b13c
000003d0: 9a7a de3c 4331 8a3d 88b7 393d 57e5 4fbd
000003e0: e3e0 f43c 3a34 3dbd 1c04 ed3c fb17 a5bd
000003f0: 037a 26bd 097a 99bd 22d5 743d 7e22 daba
-0.03994112 0.010535965 0.05398144 -0.60236585 -0.01241228 -0.057566814 -0.06329917 0.07689359
0.013607736 0.0153090805 0.0067914817 -0.08831107 -0.09216582 -0.015657168 -0.015198862 0.017086536
0.022249244 -0.060528718 0.05727167 -0.030361772 -0.060646635 0.071498446 -0.101380706 0.029893277
-0.10426385 0.055133887 -0.037239682 0.020068793 0.01526247 -0.04110381 -0.02153101 -0.0044651628
0.024839431 0.06268855 -0.016797334 -0.11502464 0.08049225 0.17123573 0.0015656113 0.004429981
-0.016153634 0.14846452 0.00481119 0.06506369 0.07044867 0.06385751 -0.054409474 -0.1468411
0.30120537 0.06247248 -0.027600627 0.04878419 0.028995864 0.21294518 0.0072718584 -0.08922361
-0.060533486 0.048495688 0.02797783 -0.0416769 -0.048864547 0.06748097 -0.07329157 0.07336634
-0.0373939 -0.060672473 0.018056884 -0.031671554 -0.10103303 -0.12731871 0.094010755 0.035416067
-0.00063002855 0.032173757 -0.06059403 0.08991739 0.19594301 -0.019693252 0.0090717785 -0.61203504
0.055934973 0.044699516 -0.045862004 -0.020441925 -0.08555887 0.05039107 -0.049109098 -0.093957484
-0.2229306 0.005825091 -0.07352811 0.071767226 -0.009693087 0.0037815257 0.034304775 -0.08081915
-0.014461031 0.06430043 0.006146176 0.045616213 0.060607538 -0.0048406417 -0.01527986 0.03267917
-0.12583448 0.06758237 -0.0018942938 0.1669359 -0.06569231 -0.09088827 -0.009720548 -0.10596918
0.03766281 -0.13805841 -0.12490374 0.090536386 0.030443037 -0.043723173 -0.08381877 0.02094163
-0.07249529 0.045125432 -0.12042291 0.04072267 -0.01282189 -0.041606326 -0.054032475 -0.05528342
-0.042258017 -0.03560279 0.07559451 0.05413281 0.019502424 0.067084625 -0.07969264 -0.030341726
0.06922875 -0.044131268 -0.061844315 -0.075971745 -0.04039847 -0.05599709 0.027638402 0.027549885
0.06787794 -0.06722577 0.027821928 0.07961521 0.06929468 0.022756228 0.014566675 0.051708825
0.0072667673 -0.013144389 -0.09136381 0.048407648 0.04973512 3.7245452e-05 -0.0047960784 -0.08189117
-0.058960006 -0.009953886 -0.03231949 0.07021905 0.07674336 0.045130283 -0.01681973 -0.07913623
-0.09125648 -0.053837936 0.017655745 0.04839816 0.005619041 -0.0035716123 -0.07833805 0.042918507
0.013722578 -0.061294723 -0.06294682 -0.017174184 -0.06447984 -0.028100543 0.046116587 -0.07435308
-0.050177857 0.047187842 0.009578103 -0.026617914 0.001047045 -0.07433567 0.040505778 -0.04369252
0.016553827 -0.025335155 -0.028045662 0.08011568 -0.06783376 0.075441934 -0.082806505 0.08674409
0.02859179 -0.024052473 0.03588412 -0.015061136 0.06407419 0.078633405 0.017974854 -0.08560451
0.0029628798 0.0661932 0.025978943 -0.023031443 0.058410622 0.04753976 -0.015068818 -0.060502052
0.04755177 0.039709095 -0.028699927 -0.008728335 -0.02724114 -0.06488135 0.04272676 -0.063156165
0.015559828 -0.04170046 0.018396065 0.07076766 -0.05983955 0.0018448895 -0.0927105 0.014908605
0.019905612 -0.08888902 -0.049592942 -0.014791703 -0.032851834 -0.051857572 0.015708178 -0.07856224
-0.036514934 -0.05898248 -0.07231797 0.021678971 0.02715807 0.06747677 0.045341045 -0.050755825
0.02989239 -0.046192385 0.028932624 -0.080612145 -0.040643703 -0.074939795 0.05977357 -0.001664236

model.2.bias f4 [128]
00000000: 2790 733c 15b9 82bd 99a3 a33d 5bfb 413e
00000010: bd9c a93d 88db 043c 6d78 bd3c 2a6f 5ebd
00000020: 78a7 c3bc aa05 a7bb 6d96 3d3e 3016 263d
00000030: efb5 cc3c cb92 2d3e babb 623c 85a1 193e
00000040: 0658 753e 7941 2c3d 3b50 a5bb 1c34 823d
00000050: c14c a33d 9358 8b3d d1c7 f8bb 2342 0d3d
00000060: ee02 393e 54f3 96bd f32c 76bc fb26 0abc
00000070: 50b9 54bc d2af 2d3d 6a94 a23d d723 293d
00000080: 9e5a 163d 56ae f23c 040b 213d 24a5 fabc
00000090: b67a 8a3e 45d4 883d 2fb7 df3d bf34 b4bd
000000a0: 91bf 55bd 532d 583d 3ea6 6cbd aced a5bd
000000b0: f54b 7f3e f0a7 91bd 302d c6bc 19ab 47bd
000000c0: f89e 463d 2238 1a3e 3df4 6e3e 1fca 32bd
000000d0: 053f 72bd e293 f63d 5962 003d cfcc f03d
000000e0: fc84 d8bd 08e8 85bd a193 fc3b cd8b 483e
000000f0: 295c 6a3e faf5 463d 5d2b 23bc e390 fa3b
00000100: 80db 11bb 4dcb 223e 5ce4 6d3d be72 d5bd
00000110: afdb 223c 2d23 3a3d 276c 3c3e 8067 873a
00000120: cd67 c2bd 44b4 7fbd e97b 4fbd 14b2 29bd
00000130: 8a71 08bd 9206 883d a6e2 503c 5fa9 53bd
00000140: dea8 e7bc 0d00 163e 94c5 9b3d 6653 38bd
00000150: e0d1 793d 547c abbc bb06 6fbd cb62 da3d
00000160: 3683 073e a4de 913d 3b67 8f3c aa79 483e
00000170: b66d c0bd 6558 133b 0f74 813d 21a3 403d
00000180: cb29 483e b907 9a3e 72ff bb3d 6e60 753d
00000190: fe67 5d3c eb4c bebd 9378 03be 0327 c93d
000001a0: 04eb ae3d ae63 f83d 0468 e63d 5ba3 4f3d
000001b0: b743 273d c7b4 a4bd 9098 253d 1bf6 98bc
000001c0: 8652 af3c a478 6bbd bad4 8ebd 290d a8bd
000001d0: 7c44 e93c b11d 093c 1237 7abd 5080 a63b
000001e0: d0a4 093b 5fe7 09bc e068 133c c547 6a3d
000001f0: 106c a5bd 5fc6 8b3d 8a5f ef3d c182 1e3e
0.014865912 -0.06382958 0.07990188 0.18943541 0.082818486 0.008108981 0.023128713 -0.054305233
-0.023883566 -0.0050971108 0.18514414 0.040548503 0.024989096 0.16950528 0.013838703 0.15003021
0.2395936 0.042054627 -0.0050449646 0.06357595 0.07973624 0.068040036 -0.0075921793 0.0344869
0.18067524 -0.0737063 -0.015025365 -0.008432145 -0.012983635 0.042404003 0.07938464 0.041293945
0.036707513 0.029624145 0.039317146 -0.030596323 0.27046746 0.06681112 0.109236114 -0.08799123
-0.052184645 0.0527776 -0.05777573 -0.08101973 0.24931319 -0.0711211 -0.024191469 -0.048747156
0.04849145 0.15060475 0.23335357 -0.04364979 -0.05914213 0.12039925 0.03134379 0.11757814
-0.1057224 -0.06538397 0.0077080284 0.1958458 0.22886719 0.048574425 -0.009959069 0.0076466664
-0.0022256076 0.15897866 0.05807911 -0.10422276 0.009940072 0.045443702 0.18400632 0.0010330528
-0.09492455 -0.062427774 -0.05065528 -0.041429594 -0.033311404 0.06641878 0.01274935 -0.051675197
-0.028278764 0.14648457 0.076060444 -0.04500141 0.060991168 -0.020933308 -0.058356028 0.106633745
0.13233647 0.071225435 0.017505279 0.19577661 -0.09395926 0.0022483107 0.063209645 0.04703057
0.19547193 0.30084017 0.09179582 0.059906416 0.013513563 -0.09292015 -0.12838964 0.09821894
0.085409194 0.121283874 0.11250308 0.050692897 0.040836062 -0.08042293 0.040428698 -0.01867204
0.021401655 -0.0574881 -0.06974168 -0.08205635 0.028475039 0.008368895 -0.061087675 0.005081214
0.0021002777 -0.00841698 0.008997172 0.05719735 -0.08077252 0.06824946 0.116881445 0.15479566

model.4.weight f4 [64, 128]
00000000: a544 d83c 984e 573d 9ff5 25bd 1704 b83d
00000010: 3a8b 1e3d c015 a23c 1b74 ce3c 1c15 cd3d
00000020: bf6e a13d 211b bf3c 846b 9c3c 0ddd 0dbd
00000030: baf6 9dbd 478e 883d 7053 393d 9bd2 b9bd
00000040: 6d6c c13c 72cc 7e3d 8491 15bd da84 4d3c
00000050: f753 9b3d bc67 a73d 4c8b b33c e1de 6cbd
00000060: 9882 29bd 4372 8a3a 486d 8fbb d589 603d
00000070: 500f a43c 7753 8d3d 3ddf 5bbd c220 42bd
00000080: 02d7 723d 9442 8c3d 22af 223f f7a7 6a3e
00000090: 8fae 913e bff8 00bd 4119 e63d 6982 e6bd
000000a0: 30ab 88bb b39d da3c 5796 64bd 0720 903d
000000b0: 7801 2e3d ad9f 613c 8022 6d3b 8efd 6abd
000000c0: 6e27 763c 1037 19bd 8b87 c13d 7950 5a3d
000000d0: d138 9abd 9f2d 5f3d 4568 acbe d9ee ad3c
000000e0: 9e65 a2bd 58bb 963c f4dc b33c 575d 8f3e
000000f0: 6da4 9abd 9e57 92bb ff14 71bd 961e db39
00000100: 50bb 943b 0a0e de3e 4223 20bc a7c0 063f
00000110: 1ec7 ee3e 8897 9cbd dd6c 863d 31f4 62bd
00000120: e8c3 203d e0ca f73c f7b3 01be 9a92 9bbd
00000130: 4883 a8bc 84b0 353e 7172 9bbd 8489 31bc
00000140: 9613 06bd f88a 6d3d 1d72 a2bc 0804 613e
00000150: f05e 61bb af1d 12be f141 43bd b80b 58bd
00000160: a47e 99bd 4d9c c43c e849 95bd 8aa9 a13e
00000170: a275 d4bd 17fe a3bd 6e03 6e3d 6b0c edbb
00000180: 4595 133d a9ef a83c 27d3 d33d 6a18 98be
00000190: 36b3 3c3d 1e84 743c 352f 3cbe 9e16 18bc
000001a0: 814e 3ebd 2e04 08bb 0299 ebbc 5e28 233d
000001b0: 4826 553d e814 1fbe 8e55 d53c e5f5 eebc
000001c0: 14bf d93c e4dd b3bc 8439 dc3c 0024 913c
000001d0: c4aa f7bd 42f6 9fbe 8cbc 0e3d 5c06 a1bc
000001e0: c518 78bc 10ab 23bd 3294 a3bd 55e9 d43c
000001f0: 1191 b0bb eeee a4bd d862 0fbd 4fa6 063e
00000200: a672 17bd a0b2 12bb a832 e2bc afc2 7d3c
00000210: 17ef 873d b623 1e3d af61 e3bc 7daa 7fbd
00000220: 2852 5c3c 60b0 ddbb 2664 9fbd 328a 703d
00000230: 49ce a63d e2c8 c3bc 6c19 b2bd 0a6c 22bd
00000240: e514 f13c a05e 093d a96d 703d 744d 9fbd
00000250: 3c6c 8abd 60bd 203c 2c27 e13c 5a60 05bd
00000260: a473 9cbc e649 60bd 96d7 433d 1855 013c
00000270: 4d61 b43d c693 3b3d 0cff 95bd dc76 50bc
00000280: ec4b cc3c 96e4 6d3d 45fa 37bd 0ae2 bbbd
00000290: 61ca a6bd f6ba 80bd b801 fc3c bb58 973d
000002a0: f265 513d c786 36bd a23c 913d a205 82bd
000002b0: 44bb 55bd 98fc 2abc f0ca 823c dda3 1abd
000002c0: e301 a6bd 8521 aabd f4e1 2dbd 37ab 7abd
000002d0: aa32 413d c135 db3c 0eb9 aebd 87db 88bb
000002e0: bde6 5b3d ca6e 8fbd 4adf 313d 639b 6c3d
000002f0: e6c1 2f3d a035 b6bc 4364 a63d 2626 523d
00000300: 9ef6 74bd a4a5 093c 1287 a1bd 4d6f a23d
00000310: 5671 5fbd 6834 993c b51c 023d b8d1 2e3c
00000320: 5fda b43d 98c6 0b3c fee3 703c b3b7 a0bd
00000330: b85b a4bd f973 b33d c67d 453d 31e1 bcbd
00000340: 7269 84bd a4b1 a63c 3e24 94bd 3dbb 9b3c
00000350: 7365 87bd 4f06 c23b d773 993c 2002 5dbd
00000360: 251c c7bb 124f 52bd a043 823c 5d2f 913d
00000370: 20ba 0dbd 4b7f a63d d6c8 80bd b231 383d
00000380: d643 ffbc 7418 15bd d8ca 00bd 8c03 a3bd
00000390: 3fb5 423d f50e b33d c8b6 c5bb d62a 073c
000003a0: f4be 4a3d dc1a a83d 459e afbd b6dd adbd
000003b0: d453 26bd 1cef 81bd 3847 d3bc 3a1f 98bd
000003c0: fff0 b1bd 86b9 263d d076 143c 58b6 3f3d
000003d0: f096 29bd e726 9a3d 2ed5 263d 9494 e3bc
000003e0: 18d8 76bd 12f6 7a3d d221 4cbd c00d c1bb
000003f0: 82d5 0dbd 1f28 a23d 5a55 8fbd a94f ac3d
0.02639992 0.052565187 -0.040517446 0.08985155 0.038706996 0.019785762 0.025201848 0.10013792
0.07882451 0.023328366 0.019094236 -0.03463464 -0.07713075 0.06667762 0.045245588 -0.09073373
0.023611272 0.062206693 -0.036515728 0.012543881 0.075843744 0.08174083 0.021917008 -0.05782974
-0.04138431 0.0010562617 -0.004377041 0.054818947 0.020026833 0.06900685 -0.053679693 -0.04739452
0.05928708 0.06848636 0.6354848 0.22915636 0.2845349 -0.031487223 0.112352856 -0.112553425
-0.0041707978 0.026686525 -0.055807438 0.07037359 0.04248187 0.01377098 0.0036183894 -0.057370715
0.015024049 -0.037406027 0.09449681 0.0532994 -0.07530368 0.054486867 -0.336733 0.021232056
-0.07929538 0.01839988 0.021955945 0.280009 -0.07550893 -0.004466011 -0.058857914 0.00041793723
0.004538931 0.43370086 -0.009774031 0.52637714 0.4663629 -0.0764609 0.06563733 -0.05540866
0.03924933 0.030248106 -0.12666307 -0.075963214 -0.020570412 0.17743117 -0.07590187 -0.010836009
-0.032733522 0.05799386 -0.019829804 0.21974194 -0.0034388863 -0.14269136 -0.04767031 -0.05274555
-0.07494858 0.024000311 -0.07289487 0.3157466 -0.10373999 -0.08007448 0.05810874 -0.0072341464
0.036031026 0.020622091 0.103430085 -0.29706126 0.046069346 0.014924077 -0.18377383 -0.009282736
-0.046461586 -0.0020754444 -0.028759483 0.03983342 0.05203846 -0.15535319 0.026041772 -0.029169986
0.026580371 -0.021956392 0.026882894 0.017717361 -0.12093118 -0.31242567 0.03484778 -0.019656353
-0.015142624 -0.03995806 -0.079872504 0.025990168 -0.005388387 -0.08053385 -0.035006374 0.13149379
-0.03697457 -0.00223843 -0.027612045 0.015488311 0.066374 0.038608275 -0.02775654 -0.06241845
0.013447322 -0.0067654103 -0.07782774 0.058725543 0.081448145 -0.0238995 -0.08696255 -0.039653815
0.029428909 0.033537507 0.05869833 -0.07778445 -0.06758925 0.0098107755 0.027484499 -0.03256259
-0.01909811 -0.054757975 0.04781302 0.007893823 0.08807621 0.045795225 -0.07324037 -0.012723651
0.024938546 0.058079325 -0.04491641 -0.09173973 -0.081440695 -0.0628566 0.030762538 0.07389971
0.051122613 -0.044562127 0.07091643 -0.063487306 -0.052180544 -0.0104362 0.015965909 -0.03775393
-0.081058286 -0.083071746 -0.042451814 -0.06119844 0.047167458 0.02675903 -0.0853139 -0.0041765603
0.053686846 -0.07003553 0.043425836 0.057765376 0.042909525 -0.022242367 0.08124592 0.051305912
-0.059805505 0.008401308 -0.07887091 0.07931385 -0.054551445 0.018701747 0.03176566 0.010670118
0.088307135 0.008531235 0.014702795 -0.07847538 -0.080253065 0.087623544 0.04821565 -0.09222639
-0.064654246 0.020348378 -0.07233475 0.01901018 -0.06611147 0.005921162 0.018731995 -0.053957105
-0.006076353 -0.05134494 0.015901387 0.07089112 -0.03460133 0.08129748 -0.062883064 0.04496927
-0.031160276 -0.036400273 -0.031443447 -0.07959661 0.04753613 0.08743087 -0.006033752 0.008249959
0.049498513 0.08208248 -0.085751094 -0.08489554 -0.04060729 -0.063444346 -0.025790796 -0.07427831
-0.086885445 0.040704273 0.00906153 0.046804756 -0.04140371 0.07526951 0.040730648 -0.027780809
-0.060264677 0.061269827 -0.04983694 -0.0058915317 -0.034627445 0.07917809 -0.069987014 0.084136315

model.4.bias f4 [64]
00000000: 14b6 3b3d cfd7 8c3c 3d6f 6d3d 15f8 7b3c
00000010: b085 b4bd 3dfb e23d e08b 43bd a8fc 22bd
00000020: 75e7 2cbd 2ce1 073d 0d6c 753c 6b82 b5bc
00000030: ed12 d53d a907 383d 05e1 bcbd b913 01bd
00000040: 6a0b 32bb 5136 8f3d 7335 90bd b1b0 2d3d
00000050: 6476 7abd b378 023e efcb ec3c 4dd3 e0bc
00000060: df95 d43c 5d80 8dbd 9920 833e 09cb 9fbc
00000070: 1262 263d 0388 5bbd 8941 ef3d 6e1f 8c3d
00000080: c6c7 f53d 2cbe 00be 58ff 2f3d 60c1 3ebd
00000090: 3d0d 9dbd 939b 90bc 90d1 86bc 764f 9b3c
000000a0: 052a b9bb 737d 4d3d ac3d ba3b 4de1 863e
000000b0: 9396 893d 5718 cf3d b2a4 debc 63cf fb3c
000000c0: a83d 363d 7733 5d3c 5b74 6ebd 9678 81bd
000000d0: a054 d9bd 3fc9 5b3b 021a 773d 4946 0ebc
000000e0: 40bb 57bc 9e3e 963d bbad 173e b616 f0bd
000000f0: 2189 bc3d 72a1 8fbd f756 e23d ed34 693c
0.04582794 0.01719275 0.057967413 0.015378972 -0.08814561 0.11083076 -0.047740817 -0.039791733
-0.042212922 0.033173725 0.014979375 -0.022156915 0.104040004 0.04492918 -0.092226066 -0.03151295
-0.0027167448 0.06992782 -0.07041445 0.042404834 -0.061148062 0.12741356 0.028905837 -0.027444506
0.02595037 -0.06909249 0.25610808 -0.019505994 0.04062087 -0.053596508 0.11682422 0.06841932
0.120009944 -0.12572545 0.042968124 -0.046571136 -0.076685406 -0.017652309 -0.016457349 0.018958788
-0.005650761 0.050168466 0.0056836214 0.26343766 0.06718173 0.10112064 -0.027178142 0.030738538
0.044492394 0.01350104 -0.058216434 -0.06321828 -0.10611844 0.00335367 0.060327537 -0.0086837495
-0.0131672025 0.07336162 0.14812367 -0.11723082 0.09205843 -0.07013215 0.110517435 0.01423381

model.6.weight f4 [7, 64]
00000000: 02b0 45be ce4b f1bd a22a e73d 9b4e 963e
00000010: 40b3 dcbd 4923 4b3e b67e 8d3d 80d7 2cbe
00000020: 3a3b 7fbd 7568 873e 6270 d1be 58f2 8ebe
00000030: f045 b43e c65d c6be d286 7bbd 4c4c 313d
00000040: 29e7 88bd d1f6 973d 8d8e e6bd 5a90 b1be
00000050: 70e5 b73d a088 8cbe 3fa0 303d 143e 1bbd
00000060: a50c 113d 6993 23bd bb2e b1be bd6d d3bd
00000070: b8dd c33c 6f45 87be f589 ffbe 801a c43d
00000080: 6e68 e1be ff1e 76bd dc70 aebe 8a6c 63bf
00000090: 40fb 743d 6be3 89bd 9c3a 6b3e 2693 90be
000000a0: a678 b9bd 11f5 b5be ee38 83bc 610e 05bf
000000b0: 2aa8 eebe 3fa0 b1be ba76 f1bd 228c cbbe
000000c0: 1c5a f2be 5ebc 4fbe b1b5 85be 1764 373d
000000d0: 1b8c f5be a59f 54be ea4c f93d bc96 cfbe
000000e0: 1bec a4be 6ec0 0e3d 6b05 83be 0624 d3be
000000f0: 03d3 f0be a083 c03d ea4c 683e 2b5b f43d
00000100: 3733 c6bd 4abf acbd f81d 743e 87fa 643e
00000110: 94ed e4bd 6991 303e 7eba 1d3d 925b 48be
00000120: 40b6 64bd 1491 a63e c7d4 e1be 2586 e4be
00000130: 2457 753e c936 c1be e0d2 9b3d a0ee 043d
00000140: 22c0 913d 3d9e 6c3d 522d 86be ea8c b9be
00000150: f38c cc3d 3629 c5be f472 ac3d 7205 32bd
00000160: 20c0 4d3d f94d f33c 7f8a b0be 42cf eebd
00000170: 00aa 7eba a1c1 28be 38bc e2be de76 153d
00000180: d16a e8be 61f6 a1bd b41e a5be 84a4 6dbf
00000190: 2a4a 8bbd 2877 05be 71cd ac3e 425a 6bbe
000001a0: 602e 413c e41e 6cbe 7c7b 223d 7499 0cbf
000001b0: dab4 06bf 4d7f 77be 8020 c63c ff5c d9be
000001c0: 6226 d3be ff10 68be 66e0 83be 351a 0d3e
000001d0: c355 00bf e2e3 8fbe 7057 70bc d865 c3be
000001e0: 49a6 d8be 47be ebbc 8f32 b7be b32e b2be
000001f0: 68e6 aabe 1183 d239 e7c2 f33d 2034 113d
00000200: 3097 2fbe dd6a af3b 1c65 273e b9cc 9e3e
00000210: 4b41 6ebc 6d6c 603d 25f1 c6bc 3e41 7bbe
00000220: b298 8fbd 5957 d23e fd70 09bf 5591 9fbe
00000230: 7980 9e3e 38f7 bcbe bbb4 0c3d 6b70 d63d
00000240: 2828 dc3c 380e 3a3e 8e08 3ebe 938d 86be
00000250: 8df2 523d dd00 b9be e728 7f3d a8c9 62bd
00000260: 7823 d43d a8b7 923c cdc1 a1be df13 b83d
00000270: 48c8 c93c f086 44be 0203 efbe 1c03 983d
00000280: 09a9 dfbe 7241 c23c a9f9 bbbe 652a 76bf
00000290: 0918 a2bc 1063 c33c 2fda 883e 5a68 49be
000002a0: 3e2c ffbd 7879 4fbe 9c0c b13d 284c 12bf
000002b0: ab55 dcbe c188 67be 80b2 df3b 273c 98be
000002c0: 4ab0 23bf 41ca b9be f03f 70be 9a45 4d3d
000002d0: 9142 ccbe da8b 9fbe 200f 37bd 7b48 aabe
000002e0: 3e94 eabe 437d 5dbd 6866 c2be 3d77 19bf
000002f0: c6fe dcbe e391 ba3d ca4d 313e d9c5 243e
00000300: a5cf 2bbe 86b0 653d 9cde 403e 7c4a d43e
00000310: a0ec e2bd a724 97bb 3d33 69bd 4524 61be
00000320: 148d a53d 3025 dc3e dbf3 32bf 2281 90be
00000330: 7106 dd3e cb70 91be 4a73 cf3c 87d0 6a3d
00000340: 1425 c3bd 6367 c33d 57fb 05be 6c7c a3be
00000350: 7173 973d 84fc 89be c53e 2a3d 2c17 d8bd
00000360: 65ed bbba 108a 67bc 489f c4be 7800 84bc
00000370: 5a41 a23d 99ce e7bd d431 9dbe c852 823d
00000380: d75a 02bf f9a0 e03d 325c 9ebe 291e 8abf
00000390: b7b2 89bd 7c14 0e3d 65a4 493e 36e5 3bbe
000003a0: 006b 0cbb 24fa 8ebe 3018 663d 0926 e5be
000003b0: ddaf 0dbf e680 a7be 6428 663d c5b1 65be
000003c0: 831f 3bbf ee20 8ebe f8fe 66be 78ea 473e
000003d0: 34c8 18bf 3f56 6ebe f62f b73d 35ac c3be
000003e0: 37df ffbe 28d5 97be 8e2f b0be 9683 29bf
000003f0: c253 febe 3018 b2bc 2bae f63d 9d03 2f3e
-0.19305423 -0.11782037 0.112874284 0.29356846 -0.10776377 0.19837679 0.06908934 -0.16879082
-0.062312342 0.26446882 -0.40906054 -0.2791927 0.35209608 -0.38743418 -0.06140787 0.043285653
-0.06684715 0.07420123 -0.11257658 -0.34680444 0.089793086 -0.27447987 0.043121573 -0.037901
0.03541245 -0.039935503 -0.34605965 -0.10323665 0.023909435 -0.2642016 -0.4990994 0.09575367
-0.44024986 -0.060088154 -0.3407048 -0.8883749 0.059809923 -0.0673283 0.22971576 -0.28237265
-0.09056215 -0.35538533 -0.016018357 -0.51975065 -0.46612674 -0.3469257 -0.117902234 -0.3975535
-0.47334373 -0.202867 -0.26115182 0.044773187 -0.47958454 -0.20764025 0.12172873 -0.4054469
-0.32211384 0.034851484 -0.2559007 -0.4123842 -0.4703599 0.094001055 0.2268559 0.119314514
-0.09677737 -0.08434923 0.23839557 0.22361194 -0.11178127 0.1724297 0.03850793 -0.19566181
-0.05583787 0.3253256 -0.4410765 -0.44633594 0.23959023 -0.3773711 0.076085806 0.032454133
0.071167246 0.057768095 -0.26206452 -0.3624032 0.099878214 -0.38508004 0.08420363 -0.043462224
0.050232053 0.029700266 -0.34480664 -0.11660625 -0.0009714663 -0.16480114 -0.44284225 0.036490314
-0.45393994 -0.07908321 -0.32249987 -0.92829156 -0.06801255 -0.13033736 0.3375049 -0.2298365
0.011790842 -0.23058659 0.039668545 -0.5492165 -0.5261971 -0.24169655 0.02418542 -0.42453763
-0.4124022 -0.22662733 -0.2575714 0.13779528 -0.5013086 -0.28103548 -0.014669284 -0.38163638
-0.42314366 -0.028777255 -0.3578076 -0.34801254 -0.3337891 0.00040151973 0.11902409 0.0354501
-0.17147517 0.0053533153 0.16347164 0.31015566 -0.014541934 0.054790903 -0.024284909 -0.24536607
-0.07011546 0.41082266 -0.5368803 -0.31165567 0.30957392 -0.36907363 0.034352046 0.10470661
0.026874617 0.18169487 -0.18557951 -0.26279888 0.051500846 -0.3613347 0.062294867 -0.055368096
0.103583276 0.01790984 -0.3159317 0.08988165 0.024631634 -0.191921 -0.46681982 0.07422468
-0.4368365 0.023712847 -0.36713913 -0.9615844 -0.019786851 0.023850948 0.2672896 -0.19668713
-0.124596104 -0.2026118 0.08644983 -0.57147455 -0.4303411 -0.22610761 0.006826699 -0.29733393
-0.6394087 -0.3628712 -0.2346189 0.050115205 -0.39894536 -0.31161386 -0.04469216 -0.33258423
-0.45816225 -0.054074537 -0.37968755 -0.5994757 -0.43163127 0.09109857 0.1731483 0.16091098
-0.16778429 0.05607655 0.18834919 0.41463077 -0.11080289 -0.0046125236 -0.05693363 -0.21986492
0.08083549 0.42997122 -0.69903344 -0.2822352 0.43168977 -0.28406367 0.025323529 0.057327773
-0.095285565 0.09541204 -0.1308416 -0.31930864 0.073950656 -0.26950467 0.041563768 -0.10551295
-0.0014337717 -0.014132038 -0.38402772 -0.016113505 0.07922621 -0.11318702 -0.30702078 0.063634455
-0.5091986 0.10968203 -0.30929714 -1.0790454 -0.0672354 0.034687504 0.19691618 -0.18349156
-0.0021426082 -0.27925217 0.05617541 -0.4475558 -0.5534647 -0.3271553 0.056190863 -0.22431095
-0.7309496 -0.27759498 -0.225582 0.19523036 -0.59680486 -0.23275088 0.08944695 -0.3821732
-0.49974987 -0.29654813 -0.3441128 -0.6621641 -0.49673277 -0.02174005 0.12044939 0.17091222

model.6.bias f4 [7]
00000000: bc50 123e 0c31 1bbd d209 7bbc 967f fabc
00000010: e5b5 583d 103e d93d 4cbe 71be
0.1428861 -0.03788857 -0.015322166 -0.030578416 0.052907843 0.106075406 -0.23607749
