ReinforcementLearning/models/TrainedModel.pth (torch, 110465 bytes, 8 tensors)

model.0.weight f4 [128, 12]
00000000: af28 823d 4f6c 8f3e ad11 18bd 0a0c 153e
00000010: fad4 f43d 9c8a ac3e e904 a2bd 6b69 bb3e
00000020: 4193 a0be 6110 49be 0673 803e a435 debd
00000030: 2a45 8ebe 9a4d e2bd 30b8 7c3d 8e23 35be
00000040: 2470 a53d a065 ca3c 94cc 9a3d 24d1 343e
00000050: e933 41be f834 fcbd 4091 2cbd 5e03 053e
00000060: 922c 36be d719 873e 09b0 513e a5b9 5e3e
00000070: 3570 7ebe 2d28 f43d d568 7c3e 56f1 563e
00000080: 98bb 79bb 2c8d d0bd 416c b73e ec58 793d
00000090: 7152 1e3c 990b 2e3e 1d93 adbe ab36 e3bd
000000a0: f564 90be 42d5 a23e 4bd9 a6be 3041 ff3c
000000b0: 1168 753e 2b17 c1bd fb47 fa3c 625a 7fbc
000000c0: 8482 06be be58 e33d 40a5 a83e 8cc8 3bbc
000000d0: 8008 f7bc 938b 7dbe da2e b43e cdd2 353e
000000e0: efbf 173e a22d ed3d 3a1b 913e f9c6 d93c
000000f0: 84ab 883d 4431 dd3d c85d bbbd 5726 403d
00000100: cc2a 1e3d 1dc1 443e 5b6d 803c 3527 8d3d
00000110: e46c 3b3d bd03 cf3d 0ef0 b73e 586e 7fbe
00000120: 566c 2c3e f634 40be 7ff1 99bd 468c 9e3e
00000130: 8f87 1e3e 8eb5 00be 3610 6cbd 55b6 9dbd
00000140: bf01 3dbe 9371 b2be 9a1d e2be b3c7 a53d
00000150: c8d9 663e 72b8 763c cd5a 2cbf fdb7 b0bd
00000160: c99f 1a3d 9804 843d ceee 49be b984 15be
00000170: 6d91 26be bc07 b13d 7282 3ebf 231f 0f3d
00000180: 5eb9 63be 4001 9f3d 28dd 61bd d054 a4bc
00000190: 48db abbd 24e5 43be a625 10be 5e7b 103e
000001a0: 98f4 1ebe 349d 013e 9f19 7fbe cbe8 67be
000001b0: 42b8 fb3d ddc5 873d 0366 68be 6408 cbbe
000001c0: 79d9 a03b e8ab cd3d 1c17 a0bc 4f12 f13d
000001d0: 0e4b f33c 9af4 36be a297 0b3d 8867 bd3e
000001e0: 8358 dfbd ea00 2e3d 1f7a 75be 3193 8b3d
000001f0: 9ac0 243c f4ef f23d 9313 b6be ae97 3abc
00000200: 25c0 9cbd 26bc 53be 0b5e 99be 0d7d b7bd
00000210: f5df c0be e5c0 15be f19f c0bd 2919 703d
00000220: 31af 4d3e 4243 003e adfd 4f3e 3b3c 9d3e
00000230: d5e2 803e c28e 813d 9bab 38be 3710 4f3e
00000240: 2858 d23d 048d 093e b07d e63d e020 0b3d
00000250: 6efe 7abe c2b3 27be 53a7 7ebe 36ad 6abe
00000260: e0f4 e4bc e086 7bbe 0afe 36be 60ad 84bd
00000270: c832 e33a 796f 36be 1edf 25bb d005 b63c
00000280: 86bc f9bd ce51 43be c2d8 9f3e acac 373c
00000290: d192 a33e 9fd8 213e 822d 80bc 799f 8e38
000002a0: 4bd8 fdbd 19bc ba3e 0eae 603e c9b0 38be
000002b0: a727 033e ef6f e93d b3c6 083e c6a1 09be
000002c0: 9af1 8b3d bd48 b43e e4f6 903e 1fce babd
000002d0: a4eb 4f3e af0d f4bd 3d40 30bf f14f c33d
000002e0: 02c6 d83d 847b bdbc 8a5b 15bf 845e 723e
000002f0: 2df1 2cbe d3eb 723e a896 01bf d7c8 c33a
00000300: 1821 c83d fe9d a03d 222d 97be 46cc 583d
00000310: e454 873e 6733 153d bf58 e8be 8b6c b3be
00000320: 0073 febd 4472 06be 5422 c0be 6423 83be
00000330: 66a5 9dbe 67bb 1c3e 832e c5bd 5a2b 9b3d
00000340: d7b2 bfbd 5f2f 893e c794 9cbe 01af f3bb
00000350: 4eda a4be df5b 55bd c5c9 11bf 0b2e 20be
00000360: 9a19 f43d 2231 f13a 0eaa f43c b09b 523d
00000370: 5245 46be 2fdb e43d 69b0 4b3e 480d 453d
00000380: 7f60 68be b07b 9c3e 3bca 273e c680 093e
00000390: 527b 87be 8784 3bbe d008 e8bc 84c9 32be
000003a0: 3e6c f0bd 000c ea39 f592 76be 0040 34ba
000003b0: f506 66be a0d3 c53c 506f 503d 3805 603d
000003c0: e346 aabe 5f96 093b afdb ff3e 8c02 6e3e
000003d0: 6c92 233c 31f6 7e3e 22a9 d23c 6d4f 183c
000003e0: 1129 d2bb 2488 063c bd53 9f3e cc44 a9bc
000003f0: fdc2 c33d a62c 413e 7c42 15be ee75 ed3d
0.06355416 0.2801232 -0.037126232 0.14555374 0.119546846 0.336995 -0.07911093 0.36603865
-0.31362346 -0.19635154 0.25087756 -0.10850075 -0.27787143 -0.110499576 0.061699092 -0.17689344
0.0807803 0.024706662 0.075585514 0.17657906 -0.18867458 -0.123147905 -0.04213071 0.12989566
-0.1779044 0.26386902 0.20477308 0.21750505 -0.24847491 0.119217254 0.24649365 0.209905
-0.00381062 -0.101831764 0.3582478 0.060875818 0.00966321 0.16996612 -0.339013 -0.110944115
-0.28202024 0.31803328 -0.32587656 0.031159014 0.2396548 -0.09428247 0.030551901 -0.015585514
-0.13135725 0.111009106 0.32938576 -0.011461388 -0.03015542 -0.24760275 0.35191995 0.17756195
0.1481931 0.115809694 0.28341085 0.026584135 0.06673339 0.10800412 -0.09148747 0.046911564
0.038615033 0.19214292 0.015677145 0.06892244 0.045758143 0.10108135 0.35925335 -0.24944437
0.16838202 -0.18770203 -0.07516765 0.30966395 0.15481399 -0.12569258 -0.057632647 -0.07700793
-0.18457697 -0.34852275 -0.4416321 0.0809473 0.22544014 0.015058624 -0.6732605 -0.08628843
0.03775004 0.06446189 -0.19720003 -0.14601411 -0.16266413 0.08644053 -0.74417794 0.034941804
-0.2223868 0.0776391 -0.05514255 -0.020059973 -0.08391434 -0.19130379 -0.14076862 0.14109561
-0.15522993 0.12657624 -0.24912117 -0.22647397 0.12291004 0.06629536 -0.22695164 -0.3965484
0.0049087373 0.10042554 -0.01954227 0.1177107 0.029698875 -0.17866746 0.034080155 0.3699305
-0.10905554 0.04248134 -0.23972367 0.06815184 0.010055685 0.11862174 -0.3556181 -0.011388702
-0.07653836 -0.20677242 -0.29954562 -0.089593984 -0.37670866 -0.14624365 -0.094055064 0.058617745
0.20086361 0.12525657 0.20311613 0.30710015 0.2517306 0.06326057 -0.18034212 0.20221029
0.10270721 0.134327 0.11254442 0.0339669 -0.2451112 -0.16377166 -0.24868517 -0.22917637
-0.027948797 -0.2456317 -0.17870346 -0.06478381 0.001733386 -0.17815961 -0.002530999 0.022219568
-0.12194161 -0.19074175 0.3122006 0.011210602 0.3194795 0.1580529 -0.0156467 6.800792e-05
-0.1239477 0.36471632 0.21941397 -0.18036188 0.12808095 0.11398303 0.13357048 -0.13440618
0.06833191 0.35211745 0.28313363 -0.09121346 0.20304734 -0.119166724 -0.6884802 0.09536732
0.10584642 -0.023130186 -0.583428 0.23668867 -0.16888876 0.23722772 -0.5062051 0.0014937174
0.09771937 0.078426346 -0.2952662 0.052929185 0.26431954 0.036425974 -0.45380208 -0.3504375
-0.12424278 -0.13129526 -0.3752619 -0.25612938 -0.30790251 0.15305863 -0.09628012 0.07576628
-0.09360283 0.26793954 -0.30582258 -0.0074366336 -0.32197803 -0.05208957 -0.569485 -0.15642564
0.119189456 0.0018401484 0.029866245 0.051418006 -0.19362381 0.111746185 0.19891514 0.04810837
-0.2269306 0.30563116 0.16385739 0.1342803 -0.26461273 -0.18312274 -0.028324515 -0.17459685
-0.117393956 0.000446409 -0.24079497 -0.0006875992 -0.22463591 0.024148762 0.050887406 0.054692477
-0.33257207 0.002099417 0.49972293 0.23243159 0.00998364 0.24898602 0.025715414 0.00929628
-0.006413587 0.008211169 0.31118575 -0.020662688 0.095586754 0.18864688 -0.14576143 0.11594759

model.0.bias f4 [128]
00000000: fab2 04be f887 9ebd 5e8f 4b3e d461 293c
00000010: 47d0 80bd c364 803e 229b b9be e51b 093e
00000020: a07e d13c 7ceb 843e a74c 0f3e ea60 513d
00000030: d164 60be e8b0 62be 4cae 093d d6c5 2b3d
00000040: 668d 2b3e 59a7 1bbc b9bf c73d e035 63bc
00000050: 0045 7f3c 4944 e5bc 79e8 89be df53 1c3e
00000060: bbb1 8d3e e431 7e3e f897 6cbd fac9 e0bd
00000070: c8ed 533e be43 183e 42ee 6b3c a7bd 49be
00000080: 87de 23be af90 843d c6e4 883e 2aad 883c
00000090: f373 1bbe 3b64 74be 45ae bb3d a457 59ba
000000a0: 3791 0c3d 24d5 9d3e 51b5 a5be 447d 49be
000000b0: be10 343d b85c aabe 4415 653e fea6 453e
000000c0: f84c 2a3e 2610 0ebe 5b01 0c3e 2897 e83d
000000d0: 8289 15bd f025 2ebd 9c39 613e a067 623e
000000e0: 700c 91bd 58e9 2f3d e109 853c 2d3e 503e
000000f0: e4d5 073e 4c76 383d fad5 923e 4e2e 893e
00000100: 6e86 d03e 0490 b33e 48fe 69be 07a5 913e
00000110: 0ad8 933d 4329 7dbe 97d0 83be 9861 08be
00000120: 80ab 4d3e e4ee d5bd 99b7 163d 6359 bd3e
00000130: 6638 a3be e6a9 a23e 639c 7abd a82f 53bd
00000140: 2549 903e 33f6 acbe 7647 133c 5779 1f3e
00000150: b024 d1bc c527 c6bc 6986 663e f141 623e
00000160: 763c 723c 24e1 593e 1a3f 9abd 956f 663e
00000170: 8ff5 51bd e233 933e bce7 87bd 3056 253e
00000180: ccf2 f03d 7121 19be 7707 febd dac4 f83d
00000190: a38e 083e b9a1 31be 8106 923e 5f68 833d
000001a0: 5594 ad3e 6101 65be fa29 2e3e 6970 85bc
000001b0: cd22 633e e36f 32be 2ef4 8abe a731 a73e
000001c0: e6f6 ff3d 20cb 93bd f2a5 923e c35b 12be
000001d0: 4517 7abd 8d72 dabd 1dc7 5f3e 83e3 88be
000001e0: 9f45 813e d0ee 44bd 86c7 81bc 3a33 123e
000001f0: 0b5a c13e 0030 3dbe ae0f 6d3e 11a6 34bd
-0.12958899 -0.07740778 0.19878909 0.010338265 -0.06289726 0.25076875 -0.3625117 0.13389547
0.025573075 0.2596091 0.13994084 0.051117815 -0.21913458 -0.22137797 0.033613488 0.041936718
0.16753158 -0.009500348 0.09753365 -0.013867825 0.015580416 -0.027986662 -0.26935175 0.1526637
0.2767466 0.2482372 -0.057762116 -0.10976024 0.20696175 0.14869592 0.014400067 -0.19701253
-0.16002856 0.06472909 0.2673704 0.016684134 -0.1518095 -0.2386636 0.09164099 -0.00082909525
0.034318175 0.30826676 -0.32364896 -0.19676691 0.04396128 -0.33273864 0.22371393 0.19301984
0.16630924 -0.13873348 0.13672392 0.11356956 -0.03650809 -0.04251665 0.21994632 0.22109842
-0.070824504 0.042947143 0.016240062 0.20336218 0.13265187 0.04503469 0.28678876 0.2679314
0.40727562 0.35070813 -0.22850907 0.28446218 0.072189406 -0.24722771 -0.2574508 -0.13318479
0.20084953 -0.104459554 0.036796186 0.3698226 -0.31878966 0.31770247 -0.0611843 -0.05155912
0.28180805 -0.33781585 0.008989206 0.15573631 -0.02553019 -0.024188885 0.22512211 0.22095467
0.014784923 0.2127729 -0.07531567 0.22503503 -0.051259574 0.2875052 -0.06635997 0.16146159
0.1176506 -0.14954163 -0.124037676 0.121469215 0.13335662 -0.17346849 0.28520587 0.064163916
0.3390223 -0.22363807 0.170082 -0.016288953 0.22181244 -0.17425494 -0.2713942 0.3265507
0.12498264 -0.072164774 0.2864223 -0.14292817 -0.061057348 -0.1066638 0.218533 -0.26736078
0.2524843 -0.04807931 -0.01584221 0.14277354 0.3776401 -0.18475342 0.23150513 -0.044103686

model.2.weight f4 [128, 128]
00000000: e60b fd3d 12ba 6f3d 098f 1ebe 6f76 41bd
00000010: b1bf a0bd cfa8 ac3d b15b 03be 706a 87bc
00000020: 3c29 dfbc e1af 4ebd e05a a23c c5d5 3dbe
00000030: e62a 213d 193b 5a3b e198 ebbd f420 a4bd
00000040: ec2f 4bbd 73e8 843d d7dd 803d 8099 4f3a
00000050: ddb7 43be 26c3 6abd 140f 363d a0b7 8ebe
00000060: d328 aa3d dd0c a8bd 8067 2c3b 2070 1bbe
00000070: 82c1 013d 664b fe3c 9ecc 0b3d 205f 18be
00000080: 73bb b8bd c495 033d 97e8 a23d 3c4a 6f3d
00000090: 0ad1 823d e41c e739 39b9 863d 65a5 b1bd
000000a0: 2231 0fbd 5e6f 8a3d a866 073e 59b3 4fbd
000000b0: 88cb ba3e ed83 213e f742 ff3d 5c60 a23d
000000c0: cef0 ee3c 6b5a 64be 2973 27be 35ca c2bc
000000d0: 944f ebbc 4ef0 493d 975b 27bd 832c 903d
000000e0: d3fc 903e cabc 8fbd ffdf 3e3d fa4f 003e
000000f0: b35b 5e3d e409 80bd 40e7 a13e a362 90bd
00000100: de8e 13bd 0758 71bc 5c42 023d c4dc be3c
00000110: fc1d 2cbd 8e80 7cbd 5dc7 573e 9f23 833d
00000120: 8e76 60bd 4f62 4f3d b9b5 473d fe8b 65be
00000130: f19c e23c 85d1 35bc 6a10 87bd 7023 ce3e
00000140: 700b 76bd ef41 d9bd 9a63 213c 6bde 04bf
00000150: 33b1 11bb 941d e7bd aea9 ce3d 4b7f e53d
00000160: 8e09 773c 09a2 913d b9b6 843d e99b bfbc
00000170: 9e45 9ebd 4030 c03c 6b45 17bb 34f8 693a
00000180: 9abb 8dbd 5247 82bc a8b8 94bd 9fbf c33c
00000190: b77e 0b3c 7143 363e d7ee 1f3c 7e18 f93c
000001a0: 872a b0bd 7f72 31be ef90 3e3c c39d f23d
000001b0: 81c6 343e bea4 43bc a9fd 98ba edd8 97bd
000001c0: 334f 85bd b181 a7bb 68d0 843d 606f 933e
000001d0: d48e 6cbd 4810 97bc d99c 063d fa3c f83c
000001e0: 7902 12be 6ef0 093e dd10 88bd 2a22 133d
000001f0: 3791 d4bc 2a26 143e 6615 cfbd dc87 9ebe
00000200: f113 92be 742f c9bc bd98 febc 7e1b 333e
00000210: 2bff 8c3d d9b2 cebd b8ad 01be fe4f 85bd
00000220: 5c9f c33c 50a5 533c 32c1 afbe 4809 943d
00000230: 12cf ecbc edf7 fc3c c46c d8ba c668 7b3d
00000240: 2027 4abd 28e7 4fbe 4701 e8bd ece0 a6bc
00000250: 8406 38bf 50c1 d93c 01ca 6a3b b5d4 c0bd
00000260: b69a ebbd 4f19 873d 5f90 9a3d ad87 bd3d
00000270: e05b 673c 8eb8 a23c 66df 263b 9f93 89be
00000280: f0fe 03be 6a39 9cbd 42fb 0abd 6837 14bd
00000290: bf20 bcbb 16bb 4ebd 3560 98bd d19d 87bd
000002a0: 5d96 d13a 100b 6ebf e10b 71be 00a6 e7b9
000002b0: 7c05 b7be 8425 08bd cbe2 08be b6d8 933e
000002c0: 3d6e 003e d60d c63b 80f8 28bd f734 263d
000002d0: b858 153e 7dbe 973d 4e8f 6fbd 2608 4c3d
000002e0: bb42 13bf e09e 663c c8cc ccbc e855 973e
000002f0: fa84 c53d 1ffe 54bd 0655 53be 76a7 583d
00000300: aa83 0b3d 7ddd 9b3d 68cb 73bc 429e 78bb
00000310: f934 0f3d d8e1 5a3c 9c8a 35bd cf06 cdbb
00000320: ca24 ab3e 3b89 873d 3d5b c53d 2dd6 2c3e
00000330: 742f 52be 51c2 2dbe 1858 ae3d a4f7 1cbe
00000340: 0418 29bd 0c0a e8bd 0ee0 1bbc 39ff c53d
00000350: bd89 07be b6b9 38be f179 febe 73a0 9abc
00000360: c9cc c53c 48be 1bbd 3d59 f8bb da77 a03d
00000370: 4011 fc3a b06e a8bc b66e ebbd b22a c13d
00000380: 652c 8a3d 2775 c0bd b186 28bc 4dad 23be
00000390: b149 4a3d d5ff e1be af51 59be 6643 3e3e
000003a0: f09f 23bf c3ff f93c ce9a 2ebc dc88 553d
000003b0: e8e1 26bd 4e2b 7c3d 623b 7abc f76e c03d
000003c0: b51d 65bd a5e4 03be 4f39 833d 10b8 a6be
000003d0: ddac a5bd 5fd9 50bc ade7 b3bb 6a7e e4bd
000003e0: 6740 1fbe c9c2 253d 173a 0e3e b024 d43c
000003f0: ac19 a03d 3cbb e7ba ec0b 58bc 9e5f 9e3d
0.12355785 0.05852706 -0.15484251 -0.047232088 -0.07849062 0.08430635 -0.12827946 -0.016530246
-0.027241342 -0.0504607 0.019818723 -0.18538578 0.03934755 0.0033299385 -0.11503769 -0.08014098
-0.04960625 0.06489649 0.062923126 0.00079192966 -0.19113107 -0.057315014 0.044447973 -0.2787447
0.08308568 -0.082055785 0.0026306808 -0.15179491 0.031678684 0.031041812 0.034130685 -0.14880037
-0.09020128 0.03212525 0.07954519 0.058420405 0.06387527 0.0004408128 0.06578297 -0.08674125
-0.034958966 0.06759523 0.13222754 -0.05070815 0.36483407 0.15772982 0.124639444 0.07928535
0.029167559 -0.22300117 -0.16352524 -0.02377806 -0.02872447 0.049301438 -0.04085883 0.0703974
0.2831789 -0.070184305 0.046600338 0.12530509 0.05428667 -0.062518865 0.31621742 -0.070500635
-0.03602492 -0.01473046 0.031801566 0.023298629 -0.042020783 -0.061646037 0.21072145 0.064032786
-0.054800563 0.050630864 0.04875729 -0.22416684 0.027662726 -0.011097317 -0.065949276 0.40261412
-0.0600695 -0.10608279 0.009850407 -0.5190188 -0.0022230863 -0.112849385 0.100909576 0.1120592
0.015077962 0.07110984 0.06480164 -0.023389773 -0.07728122 0.023460507 -0.0023082148 0.000892523
-0.06920548 -0.015903149 -0.07261783 0.023895083 0.008514098 0.17799164 0.009761534 0.030407187
-0.086018614 -0.17328833 0.011631235 0.11846497 0.17653848 -0.011941133 -0.0011672276 -0.07414422
-0.06509247 -0.005111896 0.06485063 0.2879591 -0.0577534 -0.01844038 0.032864425 0.030302513
-0.14258756 0.13470623 -0.066438414 0.035921253 -0.02594815 0.14467683 -0.10111503 -0.30963027
-0.2853084 -0.02455876 -0.03107869 0.17490956 0.06884607 -0.10092706 -0.12663925 -0.06509398
0.0238797 0.012917832 -0.34327084 0.07228333 -0.028907333 0.030879939 -0.0016511907 0.061379217
-0.04935372 -0.20303023 -0.11328369 -0.020370923 -0.7188494 0.026581436 0.003582597 -0.09415571
-0.11504118 0.06596624 0.07547068 0.09254394 0.014121026 0.019863393 0.0025462746 -0.26870438
-0.1289022 -0.07628138 -0.033931024 -0.036185652 -0.0057412083 -0.050471388 -0.07440225 -0.06621898
0.0015990246 -0.9298563 -0.23539688 -0.00044183433 -0.35746372 -0.033238903 -0.13367765 0.28876275
0.12542053 0.00604413 -0.041252613 0.040577855 0.14584625 0.0740938 -0.058486275 0.04981246
-0.575237 0.014075965 -0.024999991 0.2955773 0.09644504 -0.05200016 -0.20637903 0.05289408
0.03406111 0.07610605 -0.014880039 -0.0037936126 0.034962628 0.013359509 -0.04432164 -0.006256915
0.33426505 0.066179715 0.09636543 0.16878577 -0.20525914 -0.16968657 0.08512896 -0.15328842
-0.04128267 -0.11330041 -0.009513868 0.096678205 -0.13236137 -0.18039593 -0.4970241 -0.018875336
0.0241455 -0.038023263 -0.0075789974 0.0783536 0.0019231215 -0.020560592 -0.11495726 0.094319716
0.06746749 -0.09397345 -0.010286019 -0.15984078 0.049386684 -0.44140497 -0.21222566 0.18580398
-0.6391592 0.030517465 -0.0106570255 0.052132472 -0.040742785 0.061564736 -0.015272947 0.09396165
-0.055936534 -0.1288019 0.06407415 -0.32562304 -0.08089612 -0.012747138 -0.0054902644 -0.11156924
-0.15551911 0.040468965 0.13889347 0.0258964 0.078173965 -0.0017679702 -0.013186436 0.07733081

model.2.bias f4 [128]
00000000: 00cb 033d 1333 e43d 0aee d23d 96a0 823d
00000010: 3847 073e 37dd 933c 847e 7fbd c3e0 f6bd
00000020: 8e40 30bd 53ed 913d 5023 753e 5458 32be
00000030: 269d 843d 74eb dd3d 8864 703e bad9 7e3d
00000040: 7af5 04bd 1be4 693e aa99 303e 6baf 853d
00000050: 89a8 19be e281 3ebd 9fe4 a13d baba d83d
00000060: cd6a b13d 6ca7 60be 629b 413d 41c9 2d3e
00000070: 441c 243e 5b64 6d3d a931 8b3c 66b1 473e
00000080: 07c1 51bd fe24 02be bcbf cd3d ac32 04be
00000090: f11e 3bbd ce53 a83d cdae d7bc 4e22 42bc
000000a0: 6968 663e d014 e13b a0db 3b3d 452c 933d
000000b0: ed5a 5b3d a150 a33d 4717 d83d 5a22 f33c
000000c0: 800d d73c d852 22bd 115d c93d 8369 733d
000000d0: c6cc 693d 51bb be3d 90a9 593e 8e51 923d
000000e0: 2778 62bd e575 49be 04f5 2a3e 6512 783c
000000f0: 12e8 fc3d af5f 88bb e6e6 cebb f831 97bd
00000100: b1b6 193e acb4 92bd e11a 603e 0e16 a9bd
00000110: 2dd2 16be 64af c13c a7c1 8e3d ede8 9bbd
00000120: 1826 1e3c fe6c 583d 557d 533e ff12 a63d
00000130: 1a56 203e f178 f8bd fd14 743e 8872 6abd
00000140: bf61 70be a835 4e3d df23 e93d 5269 343d
00000150: e2b3 c9bd 9a7a c23d 6495 21bd 0a7c 983d
00000160: aa20 b53d 40d8 cbbd ff7f 8d3c de95 903d
00000170: 6b23 b53d e6ed 0c3d 9a5e 7a3d e085 00be
00000180: 8b39 1a3c 35f3 743d 21fb c83c 81d7 6bbd
00000190: e5f5 0f3e 7121 c2bd adfb 9b3e d21f f23d
000001a0: db60 353e c8d7 15be 22da 67bd c442 49be
000001b0: 90a4 39bd 41aa 793e 074b b23d 7c59 00bd
000001c0: 6c12 6e3c 2743 9fbd 2b4a 20bd dfba 3f3d
000001d0: 22ac 62bd b64f 433e f780 973c 4577 7d3c
000001e0: c941 5a3e 5e0c e8bc 2b4d d33d f3ee 9cbd
000001f0: 0496 893c 31c3 87be 3b62 bebd 76b8 81bd
0.032176018 0.11142554 0.102993086 0.063782856 0.13210762 0.01804982 -0.062376514 -0.12054589
-0.043030314 0.07125344 0.23939252 -0.17416507 0.06475286 0.10835925 0.2347585 0.06221936
-0.032460667 0.22840922 0.17246118 0.06527599 -0.15005697 -0.046510585 0.07904934 0.1058249
0.08662949 -0.21938866 0.047267325 0.16971304 0.16026407 0.057957035 0.016991453 0.19501266
-0.051209476 -0.12709424 0.10046336 -0.12909955 -0.045683805 0.082191095 -0.026328469 -0.011848999
0.22500767 0.006868936 0.045863748 0.07186178 0.05355351 0.07974363 0.10551315 0.029679466
0.026251554 -0.039629787 0.09832204 0.059426796 0.057080053 0.093130715 0.21256089 0.071444616
-0.055290367 -0.1967388 0.16695029 0.015141104 0.123489514 -0.004161797 -0.0063141463 -0.07382578
0.15011097 -0.07163367 0.21885253 -0.0825616 -0.14728613 0.023643203 0.0697053 -0.076127864
0.009652637 0.052838318 0.20653279 0.08109092 0.15657845 -0.12132443 0.23836131 -0.05723813
-0.23474787 0.05034414 0.11383795 0.044045754 -0.09848763 0.09496041 -0.03944911 0.074455336
0.08844121 -0.09953356 0.017272947 0.07059835 0.08844646 0.034406565 0.061125375 -0.1255107
0.009413133 0.059802253 0.02453381 -0.057578567 0.14058645 -0.09479035 0.3046545 0.118224755
0.17712729 -0.14633095 -0.056604512 -0.19654375 -0.045322955 0.24381353 0.087057166 -0.03133534
0.014530759 -0.0777648 -0.039133232 0.046809074 -0.05533994 0.19073376 0.018494112 0.015470331
0.21314158 -0.02832621 0.10317453 -0.076627634 0.016795166 -0.26516107 -0.0929608 -0.06334011

model.4.weight f4 [64, 128]
00000000: ae2f 4dbe f2db 5ebc dbde 0a3e 0349 493e
00000010: 5439 ee3d aae3 283d 7fdc 9fbd 925c 5cbe
00000020: e517 41be 94bd b7bc 7054 f83c f547 43bc
00000030: b271 493d 5c7d 003e 911f e93d 2c6a f63c
00000040: 7c03 37be dfea 933d c63f 663d d8c1 92bd
00000050: 3df7 3dbe 798d 28bf e21b 81bd 535c a0bd
00000060: 095b 013e ff7e 8fbe a11b 40be 1400 dd3d
00000070: e9f2 7b3d 026e 513d 240e ca3d fca6 403c
00000080: 000d f439 b6b5 a3bd 3f04 803e 3eba 04be
00000090: 07b9 2abe 6724 85be 07c9 28be 7bf2 7dbe
000000a0: 1b77 e93d 8fce b0bd 4183 29bf a405 38bd
000000b0: aa82 95bd dc5c 14bf ab91 333d ace5 bebd
000000c0: d6f1 2c3d d6b4 90bd a7d1 5e3b b27f 0b3d
000000d0: fb3e 00be 2ae7 a53d 96fd 083e 2afe 04bc
000000e0: 9724 9cbd 8861 04be 9838 413e b22b 713d
000000f0: 3590 023e 9a14 d03c c818 05bf 8ce3 13bc
00000100: fee6 a13d 10c4 b23c 7a83 ac3c 2ec8 debc
00000110: f006 eebd fbdc f2bc 2e02 223d 86c5 263d
00000120: bc18 39bd d1b2 b43d 4ddd 9b3e 8826 803d
00000130: d0b3 ee3c b20d 16be a7b5 2c3e e092 b3bd
00000140: 4d63 803c 8d13 a8bd c96d 0b3e cc1c 31bd
00000150: 7e67 d9bd 1b8d 4b3e ec9b a5bd 936a 92bc
00000160: 0224 023e a129 5fb9 78d5 79be 003d 86bd
00000170: fef2 003e f39c 9c3d 9af0 403d 3ddc 1fbe
00000180: 7ca8 22be 588c 97bd cece 25be 80de fc3b
00000190: 74bb 2c3d 9a8c 6abe 9fba 983d 0e55 e63d
000001a0: db4b 913d ad2d adbc b8a1 7abd 7cc3 88be
000001b0: 03b9 33be 1934 013e eee2 97bd c12b ae3d
000001c0: a4dc 193d ca2a 65bd a1ea 4cbf 635e 653d
000001d0: 03c4 3ebe bfa2 833e 6886 903b 3b7c 2abf
000001e0: f23d 063e 7c33 0dbe 64b0 e43d 4003 0dbc
000001f0: d846 a9bc 765e 63be d0d9 40be 6d30 983d
00000200: 3128 88bc 7d51 8bbe 27c8 3dbe 6625 9fbd
00000210: 93df c6bd 2c09 a33c f1e9 11bd 4246 363b
00000220: cfc0 903d 460c 6ebd 1959 2bbf c7fd 273e
00000230: e704 683d af32 a0bd 90d3 43be cc38 853c
00000240: 69f0 6c3e e774 13bf 2fa5 eebd 40d5 8e3a
00000250: 9333 ec3d 51e2 113f f9cd 823d 5022 143e
00000260: 1add 71be 8df4 733d e6e1 373e e2c0 67bd
00000270: 0ee9 53bc 7901 a93d a731 613d af5b aa3d
00000280: 53df b03d 385c 973d 1a13 8cbe fe6d d03d
00000290: 4029 813e 91d3 2d3d 7f19 2d3e 7324 f03d
000002a0: 4071 a6be d9a4 a43d f13a 14bc 4f5b b23d
000002b0: e1d3 9f3d 7a73 e83e 523b 373e 4cac ef3d
000002c0: a0c7 723b c71f 683e 52f1 373d 766c 753d
000002d0: 560e 4f3e 92e8 c4bc 547e 08bf 632c c4bd
000002e0: 271c 953d eb8b 43be 2180 e23d 1e7d 54bd
000002f0: 1794 4fbf c6f5 33bd 91fd 563e 9c4a 74bd
00000300: c7ac 8fbe e004 11bb ed67 09bf 6b1c 65bd
00000310: 5769 213d bf4f 7c3d c18f 8cbe 80b3 a23c
00000320: 5502 863d 767d 353d 7fa0 50bd 4b38 f7be
00000330: 1340 09be f29d 823e c6a7 d0be e8eb 4dbc
00000340: 20a3 9abd bbbd 8d3d d648 82be 6257 883d
00000350: a2f1 083e ba0b e13d 7611 313d 3a3b e13d
00000360: 9725 93be 3346 dc3e 7375 603e 6d9a a9bd
00000370: 0930 17bd 9df8 87bd 34eb a5bc 21a5 473e
00000380: 4a98 3bbe 459d ed3b 47ac 143e 0951 a6bd
00000390: b27e d43d 84e6 423e 6f1d 9abd 0a33 29bf
000003a0: b197 adbc 6ea9 603d 80ff a23c 663f 1c3e
000003b0: 53b0 2e3e 237a 53bf 05f6 19bd d487 1cbd
000003c0: 3eb6 8c3d 4068 52bd e265 373e 7655 9e3d
000003d0: 47fe 8b3e 66b3 fdbc 66e8 1dbd 2063 f53e
000003e0: 3717 4dbf 92bd 0f3e 8524 0ebe 81fd 62bd
000003f0: 0274 7a3d db9b 823b 1511 f33d c0aa 0a3b
-0.2003772 -0.013602244 0.13561575 0.19656758 0.11632028 0.041232742 -0.07805728 -0.21519688
-0.18856771 -0.022429265 0.0303137 -0.011919011 0.049180694 0.12547821 0.11382974 0.030079924
-0.17872423 0.072225325 0.056213163 -0.07165879 -0.18551345 -0.6584087 -0.06304146 -0.078301094
0.12632383 -0.28026578 -0.1876054 0.107910305 0.061510954 0.051130302 0.09865978 0.011758562
0.00046548992 -0.07993643 0.2500324 -0.12961671 -0.16672145 -0.26004335 -0.16482936 -0.2479953
0.11399671 -0.08633148 -0.662159 -0.044927254 -0.07300313 -0.5795419 0.04384009 -0.0932115
0.04222282 -0.07065742 0.0033999474 0.034057327 -0.12524025 0.08100732 0.13377985 -0.008117238
-0.076241665 -0.1292783 0.18869245 0.05887956 0.12750323 0.025400449 -0.5199094 -0.009026419
0.079053864 0.021822006 0.021058787 -0.027195062 -0.11622417 -0.029646387 0.03955286 0.040715717
-0.045189604 0.08823169 0.30442277 0.06257349 0.029138476 -0.14653662 0.1686617 -0.087682486
0.01567235 -0.08206854 0.13616098 -0.043240353 -0.10615443 0.19878046 -0.0808638 -0.017873084
0.12709048 -0.00021282445 -0.24397838 -0.065546036 0.12592694 0.07647123 0.047104456 -0.15611358
-0.15884584 -0.07399815 -0.16192171 0.0077169538 0.042170957 -0.22905198 0.0745747 0.11246692
0.070945464 -0.021139944 -0.061189383 -0.26711643 -0.17551045 0.1261753 -0.0741633 0.08504439
0.037563935 -0.05594901 -0.80045515 0.055998217 -0.1862946 0.25710103 0.0044105537 -0.6659581
0.13109568 -0.13789171 0.11166456 -0.008606732 -0.020663664 -0.22204003 -0.18833089 0.074311115
-0.016620727 -0.27210608 -0.18533383 -0.07770805 -0.09710612 0.019901834 -0.035623495 0.0027812873
0.07068025 -0.058117174 -0.6693283 0.16405402 0.0566453 -0.07822167 -0.19123673 0.016262434
0.23138584 -0.57600254 -0.116526 0.0010897294 0.115332745 0.56985956 0.063869424 0.14466214
-0.236195 0.059559394 0.17957267 -0.05658043 -0.012933983 0.08252234 0.054978993 0.083182685
0.08636346 0.07390636 -0.27358323 0.10177229 0.25226784 0.042438094 0.16904257 0.11725702
-0.32508278 0.08039255 -0.009047256 0.08708822 0.078040846 0.45400602 0.17893723 0.11702785
0.0037045255 0.22668372 0.044907875 0.05991789 0.20220312 -0.02403668 -0.5331776 -0.095787786
0.0728076 -0.19096343 0.11059595 -0.051877134 -0.8108534 -0.04393556 0.20995165 -0.059641466
-0.28061506 -0.002212815 -0.53674203 -0.055935305 0.0394071 0.06159949 -0.27453426 0.019860983
0.065434135 0.044309102 -0.05093431 -0.48285136 -0.13403349 0.25511128 -0.40753 -0.012568451
-0.07550645 0.06920954 -0.25446194 0.06657292 0.13373426 0.10988565 0.043229543 0.10997625
-0.28739616 0.43022308 0.21919803 -0.082814075 -0.036911044 -0.06639216 -0.020253755 0.19496585
-0.18319812 0.007251414 0.14518844 -0.08120925 0.10375728 0.19033247 -0.07525145 -0.66093504
-0.021190496 0.05484908 0.019897223 0.1525856 0.1705945 -0.8260824 -0.037588138 -0.038215473
0.068706974 -0.05136895 0.17909959 0.07731144 0.27342436 -0.030969333 -0.03855171 0.4792719
-0.8011355 0.14037159 -0.13881119 -0.05541754 0.06114579 0.0039858646 0.118684925 0.0021158904

model.4.bias f4 [64]
00000000: 611f 583e 1ba0 a73d e928 c7bd a31a b23d
00000010: cfae 5a3d 48c6 083d 7f3e 003e 2317 1c3e
00000020: 2c01 5c3c 1a25 903d f7c8 e4bd 5330 203e
00000030: a242 343d 85c7 a63d acc1 073d eac9 153e
00000040: 5340 a63c c8dc a2ba b12a a93d ab00 29bd
00000050: cf88 7cbd 382e 3bbd 9c8b 61bc 4045 753c
00000060: aac8 3abd 21e5 813e f08e 4d3d 7b1c 5e3e
00000070: 911e 523c b986 4c3d 4985 ba3c 0b82 c2bd
00000080: 6e89 8ebd 8f35 d7bd 2ac5 983d 7524 5c3d
00000090: ab07 6ebd f152 9bbd 61fb bd3d b49a 65be
000000a0: b1b1 71bd 0cdf c4bd 6e9b 0b3e 5a57 b03d
000000b0: cc3c 58bd 7204 ed3d 1530 13bc db2d 4d3b
000000c0: 163a fcba 2977 d13c 6f9a 053d d636 213c
000000d0: 864b c53d 5731 c63d 9387 baba 5b73 3a3d
000000e0: 2c87 1d3d 801d 7c3d f2ed d83c facb 0e3c
000000f0: 60c5 10bc 675e 95bc f893 a0bd 0aee f23d
0.2110572 0.081848346 -0.097246 0.08696487 0.053389367 0.03339222 0.1252384 0.15243201
0.013428014 0.070383266 -0.111711435 0.15643434 0.04400886 0.08143524 0.033143684 0.14627805
0.020294344 -0.0012425417 0.08260096 -0.041260403 -0.06165391 -0.045698375 -0.013766196 0.014970124
-0.045601524 0.25370124 0.050185144 0.21690552 0.01282467 0.04993317 0.022768633 -0.0949746
-0.069598064 -0.10508262 0.07459481 0.053745706 -0.05811278 -0.07584179 0.09276462 -0.22422296
-0.05900735 -0.09612855 0.1363351 0.08610411 -0.052792355 0.115731135 -0.008983632 0.003130785
-0.0019243385 0.025569515 0.032617982 0.009839734 0.096335456 0.096773796 -0.0014231078 0.045520168
0.038458988 0.06155157 0.026480649 0.008715624 -0.00883612 -0.018233491 -0.07840723 0.118618086

model.6.weight f4 [7, 64]
00000000: 37bd 8ebd 4dff 63be c6b6 813d 3364 0cbf
00000010: 7137 53be 5019 eabe 834e 03be 8e7e 6dbe
00000020: b218 abbd 96ae a5bd e22c 48be 45d7 9e3d
00000030: 05a6 85bd a260 b9be 6b10 d7be 079b e23d
00000040: ca38 f4be 561a abbd ce7f 043e 8145 1c3d
00000050: 18e8 aabd 0889 0ebf 0aab aa3d 2ceb 5f3b
00000060: 0081 2c3e b706 79be 28b8 a0be 291b 9cbe
00000070: 8bde f8be 5012 05bf 4afc d4bd 27ad 0bbe
00000080: 81f7 22bd b2bb 13bf 1c75 18bd 161a 9fbe
00000090: 82b6 dabd 555d 893d 7f37 39be 1a4b 69be
000000a0: 8779 c2bd 7481 f3bd 8093 52be 147f 0bbf
000000b0: 2a3c 813d b754 3d3d fffc cdbd 9b12 ecbe
000000c0: a6af 1f3e 64bd 2bbd f448 2ebd 159e dd3d
000000d0: a3ab ff3d d91b d33d 5907 0cbe 53c1 5f3d
000000e0: 5fda b6be 6cd3 c3be 12c8 b7bd 5175 84be
000000f0: 8f88 ff3d ab51 7cbd 7554 d3bd 8f62 63be
00000100: bba5 f1bd 2c10 4cbe a053 7d3d d0e4 13bf
00000110: da4f 1cbe d255 05bf c942 54be 2e47 71be
00000120: abd5 86bd 5214 89bd cdd5 0abe 2c70 153e
00000130: 88e7 013e e0a9 56be cc1f 14bf abb0 ef3d
00000140: 36e1 16bf c6d5 823d eab9 663e 3397 e33d
00000150: 00f8 133a e92a fdbe 6841 b73d bf3d 863d
00000160: 19e7 403e f214 89be cbd9 dbbe 9af3 b6be
00000170: 32b8 0bbe c77c 0fbf fcca 7dbd 4ab7 9f3c
00000180: 3cdb dd3c 333f 45bf 1bc0 9f3d 30f1 01bf
00000190: 8f05 013c 013b 69bd e317 113d 3a3a 81be
000001a0: 22b0 983d 521a 99bd d83f 1abe d6be 06bf
000001b0: a996 9bbc 59e8 553d 0440 6a3d 0bf8 9fbe
000001c0: b6cd f63d fda2 573d e00c 863d 0e09 343d
000001d0: 9640 683d 6408 dbbc d825 fb3d 002e 21ba
000001e0: 3c2e b1be 583b c9be f22c 7fbd 1bd1 9bbe
000001f0: d6fd 93bd 7fe6 d73d 58c4 dd3c 0c72 01be
00000200: f440 70be f97c 67be abdf eabd 5f60 15bf
00000210: 0134 89bd c8f3 1ebf 8b9c 2ebe 4d64 01be
00000220: d22b 49bb 9067 d93d 48d6 4abe a0ad 173e
00000230: e284 64bd 443a 9ebe 6ac2 14bf e803 a13c
00000240: 3a81 b1be 7305 453d 9b23 fa3d 8af8 323e
00000250: ff1b e93c 6fd3 01bf f03c 58bd 3813 283d
00000260: c8f5 4e3e a8a5 91be 6ae8 0cbf 7e7a cbbe
00000270: f294 a7be 0874 cabe 5a04 503d 1e7d 9c3d
00000280: 77f1 b23c dbda f6be f2f6 12bd fd49 b1be
00000290: 9427 9fbd adfe 993d 9c97 853b 854a 5bbe
000002a0: 9459 303a 9d93 46bc 196a 4cbe 9ffc 09bf
000002b0: 75ed fe3d fbcd fd3d 244e 523d 5c7c c3be
000002c0: df59 1d3e 6a56 a23d 01aa 493b 8a30 723d
000002d0: a9c4 10bc eb08 ee3d a95d 31bd 802e f43d
000002e0: d31f dabe a120 7bbe d859 193e a258 b9be
000002f0: 23bb 863d b805 c0bd 602e aebb 828f 3ebe
00000300: eb9f 4dbe 989b 21bf 9713 6c3d 74ff 25bf
00000310: 756a 933b e3d4 0bbf 92dc 81be 2946 3dbe
00000320: d9f1 f8bc a8b1 0abd 32c6 6ebe 952a fb3d
00000330: 1b72 d3bd 7000 86be 0da5 1fbf 9808 173d
00000340: 76d2 d8be c3a9 b9bd 7632 c23e 6539 d83c
00000350: 08b4 e13c d611 29bf 1dd3 6ebd 670a debd
00000360: a98a 873e c07d 70be 7610 53bf 0952 1abf
00000370: 4ba5 b5be dacf 0dbf 0683 ca3d 8869 853c
00000380: 93e8 b83a f78b 5ebf a54c 003e e70a abbe
00000390: f0e8 3ebd abe4 e7bd 8efd 3e3d 68ec 7dbe
000003a0: 433d fcbd ad01 e7bd c580 3ebe d971 8dbe
000003b0: 80b9 f6bd 1de3 8f3d aa99 1e3c 0157 d2be
000003c0: 29b2 ef3d 1497 b3bd c0f0 1dbd fca8 a63d
000003d0: 9b5c a33d 844d d83d 51ec ce3d 88f9 a63c
000003e0: d7eb 7abe 3d73 0cbe d59c e9bc 3b5f dbbd
000003f0: b2d6 b4bd f296 2d3d bffc 223d d61e 75be
-0.069696836 -0.22265358 0.063336894 -0.5484039 -0.20626618 -0.45722437 -0.12822919 -0.23192808
-0.0835432 -0.0808994 -0.19548371 0.07755903 -0.06525806 -0.36206537 -0.42004713 0.11064725
-0.47699577 -0.083546326 0.12939379 0.03815222 -0.083450496 -0.55677843 0.08333404 0.0034167273
0.16846085 -0.24318968 -0.313905 -0.30489472 -0.48607287 -0.5198107 -0.10399683 -0.13640271
-0.03978682 -0.57708275 -0.03722106 -0.3107459 -0.10679342 0.06707255 -0.18087576 -0.22782555
-0.09495836 -0.118899256 -0.2056408 -0.5449078 0.063103035 0.04622337 -0.10058021 -0.46107945
0.15594348 -0.041928664 -0.042550042 0.108211674 0.12483909 0.10308046 -0.13674678 0.054627728
-0.3571348 -0.3824724 -0.08973707 -0.25870755 0.12477218 -0.061601322 -0.10318843 -0.22205566
-0.11799189 -0.19928044 0.06184733 -0.57771015 -0.15264836 -0.52084076 -0.20728602 -0.23562309
-0.06583723 -0.06693329 -0.13558121 0.14593571 0.12685978 -0.2096324 -0.5786102 0.117036186
-0.58937395 0.0638843 0.22531858 0.11112823 0.000564456 -0.494468 0.08948022 0.06554746
0.18838157 -0.26773793 -0.429396 -0.35732728 -0.13644484 -0.5604977 -0.06196116 0.019496579
0.027082078 -0.7704956 0.07800313 -0.5075865 0.00787486 -0.056941036 0.03542317 -0.25239736
0.0745547 -0.07475723 -0.15063417 -0.5263494 -0.018992739 0.052223537 0.057189956 -0.3124393
0.12050955 0.052645672 0.065454245 0.043953948 0.05670222 -0.0267374 0.122630775 -0.0006148517
-0.34605587 -0.39303088 -0.062298723 -0.30432972 -0.0722615 0.105420105 0.027071163 -0.12641162
-0.23462278 -0.22606267 -0.114684425 -0.58350176 -0.06699372 -0.6209073 -0.17051904 -0.12635918
-0.0030696285 0.10615456 -0.19808304 0.14812326 -0.05579079 -0.30903828 -0.5810915 0.019655183
-0.34668905 0.0481009 0.122138225 0.17477623 0.028455732 -0.5071325 -0.05279249 0.041033953
0.20210946 -0.28446698 -0.55042136 -0.39741892 -0.32730824 -0.3954165 0.0507854 0.07641052
0.021843655 -0.48213848 -0.035880037 -0.3462676 -0.07771221 0.07519279 0.004076911 -0.21415146
0.00067272154 -0.012120155 -0.19962348 -0.53901094 0.12447635 0.12392803 0.051344052 -0.38180816
0.15366314 0.079266384 0.0030771496 0.05912832 -0.00883595 0.11622795 -0.043302212 0.11922932
-0.42602405 -0.24524166 0.14975679 -0.36200434 0.06578662 -0.09376091 -0.005315587 -0.18609431
-0.20080535 -0.6312804 0.05763587 -0.64842916 0.0044987747 -0.54621714 -0.25363594 -0.18483795
-0.03038876 -0.033860832 -0.23317793 0.12263981 -0.10324498 -0.2617221 -0.6236122 0.03687343
-0.4234807 -0.090655826 0.37929124 0.026394555 0.027551666 -0.6604284 -0.058306802 -0.10841828
0.26472977 -0.2348547 -0.8244699 -0.60281426 -0.3547767 -0.5539528 0.09888272 0.016285673
0.0014107398 -0.8693232 0.12529238 -0.33406755 -0.046608865 -0.11322912 0.046628527 -0.24797213
-0.12316372 -0.112796165 -0.18603809 -0.2762592 -0.120471 0.0702574 0.009680191 -0.41082004
0.11703903 -0.0876905 -0.038559675 0.081377 0.079766475 0.1056166 0.101036675 0.020382658
-0.24504028 -0.13715835 -0.028517166 -0.10711523 -0.088300124 0.04238028 0.03979182 -0.23937544

model.6.bias f4 [7]
00000000: e635 4cbd 662d 08be 56f2 10bc e22c 773d
00000010: 23d1 893d cf36 e5bd ecdf fd3c
-0.04985609 -0.13298568 -0.00884684 0.060345538 0.06729343 -0.111920945 0.030990563
