DeepLearning/classification/cifar_net.pth (torch, 251167 bytes, 10 tensors)

conv1.weight f4 [6, 3, 5, 5]
00000000: 3b03 3b3e 4f3f 3dbe 6450 44be ae50 2e3f
00000010: 3bdc 033f 5453 e83d 1948 f1be aa89 ecbe
00000020: b46e b83e 91dc 843e 33c4 6f3e d65b ddbe
00000030: 8458 40bf 772e a23e c238 ed3d ec30 273e
00000040: 0648 48be d10b 3dbf 3872 353e 0d33 4fbd
00000050: 5e3e c7bd d28c 65be 9dc3 08bf 6acb 99bc
00000060: 1f75 7dbe 60a6 7dbc 8eff c9be a65e 2cbf
00000070: b708 ff3d 196a 53be 2ddf 943e d9d5 8cbe
00000080: 10cb 02bf 0ba0 c63e e9e5 2fbe 59f6 ad3e
00000090: d5bb abbe 4c43 26bf 6826 0a3f e1f3 573d
000000a0: fd1b aa3e 02e9 22be efb0 ebbe a690 f83e
000000b0: 6c74 073e 0924 163e 1f86 d5bd 319b cebe
000000c0: fd95 273e 2393 5b3c 0283 ec3e 1d97 3b3e
000000d0: bdb3 72be 3f57 253d 31df e1be 9faa 073f
000000e0: 89dd 3abc 24aa d4bd f0f9 513e 9ab0 b6be
000000f0: 4d5d 183f 514b ac3c 5c07 8cbe aab4 f53e
00000100: 0c02 a4be 57c6 b43e 8040 8f3d 7174 bfbe
00000110: b175 953e 28cf 9abe 0af2 973e 16ed 203d
00000120: 59fb 6bbe 2f9c 923e ee1a 28be a0e2 493d
00000130: edfd 2f3d 2be6 a43e ae3f da3e 1809 c2be
00000140: 4a8b 95bd 2b90 09bf 222f d8be f280 4e3f
00000150: 71b3 703e 0f75 e43e a1bb 4dbe df1b a7bf
00000160: 2513 b0be e6ff 3d3f 7e12 833e c307 853f
00000170: 5c7d 97be 5009 8abf ca18 0dbe d011 e0be
00000180: 4798 923e a6d4 153f 1198 ee3d 26bb 82bd
00000190: 2522 a9be fcc9 2fbe 922f 813d 45ae ab3e
000001a0: 3d1c fd3c bdcd 05bc 5df6 0bbf 8564 05bf
000001b0: 49fe 4d3f a4e1 f73e 8a28 db3e 3384 0cbd
000001c0: 3c9a b1bf 4db2 06bf c27c 4e3f 4350 b63e
000001d0: 6099 7b3f 8ce8 4fbd d46a 90bf 86a7 2ebe
000001e0: 11b9 c1be 2a77 953e efda 2b3f c7a2 b1bd
000001f0: 0f7d a0be 8926 9abe 197b abbd c5ce ae3d
00000200: 668b 8f3e 5e4b 1bbe 59e7 26bd 46ca f9be
00000210: c504 c0be a898 283f c70e d63e 4241 e93e
00000220: 5f0a 1dbd 7c38 9bbf 805e efbe 5021 373f
00000230: 419b 0d3e 881c 793f ad84 24be d018 99bf
00000240: 437d efbd 92ba 61be 766f 8c3e 0455 443f
00000250: 9c2d 9bbd ec32 22be fc9b 4c3e a6dc 733e
00000260: d0b7 f93e b137 873e c23c b33d 84e6 84bd
00000270: 06e9 953e 9759 d63e 209a d73e 3ac5 533e
00000280: c1d2 363f 1617 853f a6c1 643f c87d bd3e
00000290: c63e b43e 6f83 b93e c58c 0dbe 1d3b 1cbf
000002a0: 0bbb 0bbf 521b 87be 6341 16bf cefc 6ebf
000002b0: 994f 6ebf 32a0 32bf d0d2 f1be 5a1e 143d
000002c0: 693b 08be 32a2 6f3e ddd6 60bc 1cb7 213e
000002d0: c1f5 46bf 1dae c6be 2c04 97be 5f3a 96be
000002e0: 11d8 0ebf f70c 713e 5278 013f dbb3 c03e
000002f0: d131 12be e849 9dbe 5cb8 8c3e 9cd1 7c3d
00000300: 7979 bebe a9b9 01bf 4cc6 c8be 9c9b b6be
00000310: 72e4 0bbf b714 d4be 6ab8 39bd d2be f23d
00000320: e01e 293d 3fc1 d2bc bf47 373d cd78 ce3c
00000330: 9d78 a83e aa07 34bf 929c 27bf d83b 18bf
00000340: 1361 5abe cc04 43be e430 9a3d 0086 043f
00000350: 4765 d23e 59bb 003e 4a40 cbbd 21c4 1c3f
00000360: 1da6 e73e 25a6 363e 367e ec3d 4380 403d
00000370: d9f5 9ebd 15a3 89be 6e4a 78bd fe0f f23e
00000380: 0cf6 173f 3e9d 7ebd cb91 78be c5ab 85be
00000390: 44fa 27be 334e 983d f51b a7be 704e 19bf
000003a0: d207 00bf 99fa ebbe cfee 67be 7938 993d
000003b0: e8b1 533e 5481 7a3d c521 b13c 1f71 353e
000003c0: ab0b 70be 1501 7dbe c354 c6be 1f62 c5be
000003d0: 28ad 543d c831 403e ee3d d3bc 43eb 97be
000003e0: 75ac 9bbe 8300 813c 1265 063d daab 90bc
000003f0: 1771 46be 8a0c aabd cc19 fbbc 2390 bf3d
0.18262951 -0.18481182 -0.19171292 0.6809186 0.5150792 0.113440186 -0.4712532 -0.4619878
0.3602196 0.2594953 0.23414688 -0.43234128 -0.75135064 0.31676075 0.11583091 0.16327256
-0.19558725 -0.73846155 0.17719352 -0.050585795 -0.097286925 -0.22417 -0.5342348 -0.018773753
-0.2475171 -0.015481561 -0.39452785 -0.6733192 0.12452834 -0.20645942 0.2907652 -0.27506903
-0.510911 0.38793978 -0.17177548 0.3397701 -0.33541742 -0.64946437 0.53964853 0.052722815
0.33224478 -0.15909198 -0.46033427 0.48547858 0.13228005 0.14662184 -0.10425972 -0.40352777
0.1636581 0.013401779 0.461937 0.18319364 -0.23701377 0.040366407 -0.44115594 0.5299472
-0.011405357 -0.10384014 0.205055 -0.3568161 0.59517366 0.021032007 -0.27349365 0.47989398
-0.32032812 0.3530757 0.06994724 -0.37393525 0.29191354 -0.30236173 0.2967685 0.039288603
-0.230451 0.28634784 -0.16416523 0.049288392 0.042966772 0.32206854 0.4262671 -0.37897563
-0.07301958 -0.5373561 -0.4222346 0.80665505 0.23505951 0.4462056 -0.20091106 -1.305538
-0.34389606 0.74218595 0.25600046 1.0392994 -0.2958783 -1.0784092 -0.13778988 -0.4376359
0.28631803 0.585276 0.11650098 -0.06383352 -0.33033863 -0.17166895 0.063079014 0.33531395
0.030897254 -0.008166728 -0.54672796 -0.52106506 0.80466133 0.48414338 0.42804366 -0.034305762
-1.3875194 -0.52615815 0.80659115 0.3560811 0.98280907 -0.050758883 -1.1282601 -0.17056093
-0.37836507 0.29192477 0.6713094 -0.086736254 -0.31345412 -0.30107525 -0.083730884 0.08535532
0.2803604 -0.15165469 -0.040747974 -0.48787135 -0.3750364 0.65857935 0.4180815 0.455576
-0.03833997 -1.2126613 -0.46751785 0.71535206 0.13828756 0.9730916 -0.16066237 -1.1960697
-0.11693814 -0.22043827 0.27428788 0.76692224 -0.07577059 -0.15839738 0.19981378 0.2381464
0.4877305 0.26409677 0.08751823 -0.0648928 0.29279345 0.41865227 0.42109776 0.20680705
0.71415335 1.039767 0.89357984 0.37010026 0.35204142 0.36233088 -0.1382323 -0.610277
-0.5458228 -0.2638803 -0.5869352 -0.933545 -0.93090206 -0.6977569 -0.4723115 0.036161758
-0.13303913 0.23401716 -0.013723102 0.15792507 -0.7771874 -0.38804713 -0.2949537 -0.2934141
-0.5579844 0.23540102 0.5057422 0.3763722 -0.14276816 -0.30720448 0.27484405 0.061723337
-0.3720205 -0.5067392 -0.39213789 -0.35665596 -0.54645455 -0.41422054 -0.045341887 0.11852802
0.04128921 -0.025726913 0.044746157 0.025204087 0.3290452 -0.70324194 -0.6547328 -0.59466314
-0.21326093 -0.19044799 0.075288564 0.5176697 0.41092893 0.12571467 -0.099243715 0.6123677
0.45243922 0.17836817 0.1154751 0.04699732 -0.077617355 -0.26882234 -0.060617857 0.47277826
0.5935981 -0.062161677 -0.24274366 -0.26107612 -0.16404063 0.0743679 -0.32638517 -0.5988531
-0.5001193 -0.46089628 -0.22649692 0.074814744 0.20673335 0.061158493 0.021622548 0.17718934
-0.23441951 -0.24707444 -0.38736543 -0.38551423 0.051922947 0.1876899 -0.025786366 -0.29671678
-0.30405012 0.015747314 0.032811232 -0.01766007 -0.19379078 -0.08303173 -0.03065195 0.09353664

conv1.bias f4 [6]
00000000: 8d48 313e 8329 e7be 5125 cdbe aa49 543e
00000010: fbee 68be d194 e3be
0.17312832 -0.45148858 -0.40067533 0.20731226 -0.22747414 -0.44449475

conv2.weight f4 [16, 6, 5, 5]
00000000: 0dbd 1fbe 23aa 0b3e df1c de3d 01f6 ca3d
00000010: 91dc b03d 6530 f4bc 9e5f 7e3d 7833 f63c
00000020: 83d5 cbbd 5bda b03b 4e88 32bd ce54 833e
00000030: 7bbd 8c3d 054f 373e dca3 efbd 613e 8d3e
00000040: 325c b73e f3c1 ec3d 50d3 063e 9708 81be
00000050: dc69 c03e 3990 733e d02d 493e 1bbb 13be
00000060: f156 60be 18dc e53d 112a d33d 34ae a13d
00000070: 3ece 243e b513 fbbd 8c1f 3a3e 0b71 dbbd
00000080: 9d5f 75bd 9710 04be 9095 d3bd b601 d7bd
00000090: 446c 3ebe 0ea9 0bbe f549 2dbd 2af3 a2bd
000000a0: ce97 40be dbf1 13be ade9 ffbd db15 a3bd
000000b0: 9941 c7be 76ed 55be cb0c 58be 5194 3cbd
000000c0: 80e9 d8be dcf8 a5be fd3f b63d a098 713e
000000d0: 30b3 e03e f227 d73d a0f6 b1be c0e7 833e
000000e0: 23dd c33e c227 a63d d1aa 02be ce0d 13bf
000000f0: dc28 e73e b3a6 123c 6dfa c0bd 89d1 96be
00000100: b336 c0be 4003 343f 392e 5cbd 5787 92be
00000110: 0116 66be af19 d0be 05d5 513e 967e 83be
00000120: b476 9dbe 6065 99be 82ff c8be ddc7 d73d
00000130: 37e4 2b3d 3d78 aebc d269 c5bc fcf0 57be
00000140: d98e 9a3d 8148 a4bd 8b14 cbbd d03d b7be
00000150: 7d14 0dbe 9820 183e 0d2b 38bd 07bd 05be
00000160: 9b62 8abe 6582 09be 45e0 803e 39ce 63be
00000170: c572 e0be 6f62 14be 7a97 0fbc 18c1 18be
00000180: a545 c4be bb80 8ebe 1b9c d13c fb55 003e
00000190: e0ba 76be 4f1f 07be 53df 88bd da65 83bd
000001a0: 3c50 af3d 65f3 e2bd 5fdc 0f3c d851 713d
000001b0: 9337 68be 703e 953d 1a2d bfbc efdf ec3d
000001c0: eb5c a2be afc7 283e e535 cd3c 66fe 36be
000001d0: 5705 823e 0100 903d 7d9e 8e3d a7e6 a43d
000001e0: 323c b03d 8d6a a03d c2bd 143e 22cf 23be
000001f0: a2ad 75bd 59be 80be 7708 8a3c 655f 47bd
00000200: 032e ff3c a71f ad3e adb4 67be 3685 41be
00000210: 0377 4f3e 2139 3b3e 6abc 4a3e 1e73 4fbe
00000220: 786f 0ebd e6b6 203e f3cd eebc 37f4 973d
00000230: 8b98 c9bd a4e9 68bc 1806 153d 65c6 08bd
00000240: f2a7 ac3e 378f 61bd d70d fd3d 4a27 38bc
00000250: cccb 8abd bb94 223e d7fa 14bd 94b8 5a3e
00000260: 991e 8d3e 9c64 d43d 4295 e93d 296d 02be
00000270: 67d7 c9bd 815f 1e3e 5b5d 363e 8b63 3b3e
00000280: bcf7 df3c 923b 33be 1efb d7bd bd1c 923e
00000290: be95 3c3e f986 223d 1179 7ebe bb4e a4be
000002a0: 2cd5 ff3d c739 bb3b 03e5 25be 38d9 a3be
000002b0: 9ae2 90be 4e65 003e 2522 ab3e a6a4 2ebe
000002c0: 9c7c a83d 4871 febc 7230 4ebe 1432 84be
000002d0: 571c 143d bd44 4f3e 6c6d ea3e b7a7 60bd
000002e0: afeb 64be 0ddc 7abc b64c aebc ea88 e13e
000002f0: b5f4 743e f3ed 003e 9ab6 133d 5286 37bc
00000300: ed11 2bbe ed38 a33e d5a9 74be 519c 92bd
00000310: 8911 af3e f176 bd3d e867 203e 48cc 2f3e
00000320: 1461 d13c a9eb ccbd 0fbd d13d eedd 06bd
00000330: 9ae5 263e 50be 1ebd 4ceb d1bd cbb4 59bd
00000340: 44b1 29bc 95d2 c2bc 4f4a a83d 5538 8e3c
00000350: b188 0fbe 7813 233d 617a b23e 47d0 a83d
00000360: c60f a83d dac9 33be 8a16 2ebe 8b4e 343c
00000370: e913 093d 345e 5ebd ed99 a3bd a335 58be
00000380: c6a8 4dbe e064 8abe f6de 73be 1de3 7fbe
00000390: 8b99 eabd 810d 44be d9c3 66be 4890 bbbe
000003a0: 4988 b3be ede6 cbbe 24b1 0c3e d0d3 b0be
000003b0: 61cd e1be a866 ddbe f89c 01bf 5a27 17be
000003c0: 8520 8dbd 3a7b 98be a0ba b0be fd4b 9ebe
000003d0: a537 1fbc e8b2 603e 601b e0bd b758 79be
000003e0: 9ac9 b0be f001 153e 34c4 fcbc 46e1 85bd
000003f0: cf38 82bd 64a9 2dbe d83e d4bd 48fe 5dbd
-0.15599461 0.13639121 0.108453505 0.09910203 0.0863582 -0.029808233 0.062102906 0.03005384
-0.099528335 0.0053971238 -0.04358702 0.25650638 0.06872078 0.17901237 -0.117011756 0.27586654
0.35812527 0.115604304 0.13166547 -0.25201866 0.37580764 0.23785485 0.19646382 -0.14426844
-0.21908166 0.1122362 0.10310758 0.07894555 0.160943 -0.12259618 0.18176097 -0.107149206
-0.059905637 -0.12896954 -0.10331261 -0.10498373 -0.18595988 -0.13638708 -0.04230686 -0.07956536
-0.18807909 -0.1444773 -0.12495742 -0.07963153 -0.38917235 -0.20891365 -0.2109863 -0.046039883
-0.42365646 -0.32416427 0.088989235 0.23593378 0.4388671 0.10505666 -0.34758472 0.2576275
0.3825465 0.08113052 -0.12760474 -0.5744294 0.4514836 0.008950877 -0.09422765 -0.29456738
-0.37541732 0.7031746 -0.05375502 -0.2861888 -0.22469331 -0.40644595 0.20491417 -0.25682515
-0.30754626 -0.29960155 -0.39257437 0.10536168 0.04196569 -0.021297568 -0.02409831 -0.21088022
0.07546777 -0.080216415 -0.09916028 -0.35789347 -0.13777347 0.14856184 -0.04496293 -0.1306039
-0.27028355 -0.13428648 0.25171104 -0.22246636 -0.43837562 -0.14490674 -0.008764142 -0.1491741
-0.38334385 -0.2783259 0.025587132 0.12532799 -0.24094725 -0.13195537 -0.06683221 -0.06415911
0.08560225 -0.1108158 0.008780568 0.058915943 -0.2267745 0.072873 -0.023336936 0.115661494
-0.31711516 0.16482423 0.025050113 -0.17870483 0.253947 0.07031251 0.06963823 0.08051806
0.08605231 0.07832823 0.14525512 -0.15996984 -0.059980042 -0.25145224 0.01684974 -0.04867496
0.03114987 0.3381321 -0.22627516 -0.18898472 0.20260243 0.18283512 0.19798437 -0.20258757
-0.034774274 0.1569477 -0.029150939 0.07419627 -0.098435484 -0.0142158605 0.036382765 -0.03339233
0.33721882 -0.05506822 0.12356155 -0.011239836 -0.067771524 0.15877049 -0.036372032 0.21359473
0.27562407 0.10370752 0.11405422 -0.12736954 -0.09855538 0.1546612 0.1780905 0.18299691
0.027339809 -0.17503193 -0.10545944 0.2853755 0.18416497 0.0396795 -0.2485087 -0.32091317
0.12491831 0.0057136747 -0.16200642 -0.32001662 -0.28297883 0.12538645 0.33424488 -0.17054996
0.08226892 -0.031059876 -0.20135668 -0.25819457 0.03615984 0.20241065 0.45786607 -0.054847445
-0.22355531 -0.015311253 -0.021276813 0.4404977 0.23921473 0.1259077 0.036062814 -0.011201458
-0.16706057 0.31879368 -0.23892911 -0.07158721 0.34193066 0.09251202 0.15664637 0.17167771
0.025558986 -0.10005886 0.10241138 -0.032926492 0.16298524 -0.038755715 -0.102499574 -0.053150933
-0.010357205 -0.023782054 0.08217298 0.017360846 -0.14016987 0.03981349 0.34858993 0.08242851
0.082061335 -0.17557469 -0.17000785 0.011005054 0.033466253 -0.054289058 -0.079883434 -0.21114211
-0.20083913 -0.27030087 -0.23815522 -0.2498898 -0.11455067 -0.19145776 -0.22535647 -0.36633515
-0.35064915 -0.3982462 0.13739449 -0.345366 -0.44102004 -0.43242383 -0.5063014 -0.14761105
-0.06890968 -0.29781514 -0.34517384 -0.3091735 -0.0097178565 0.21943247 -0.10942721 -0.24350248
-0.3452881 0.1455152 -0.030855276 -0.06537108 -0.06358492 -0.16959149 -0.10363549 -0.05419758

conv2.bias f4 [16]
00000000: 901c 733c bdf5 a73f 1e9b f9bd 8f7d 833f
00000010: abdf b53e fd96 d43e 9bdc 323e f5ae 98be
00000020: 6b74 1d3f 2e36 c5bf 5432 88bd 8b89 bfbf
00000030: 431c c8bf 0c86 143d 65b8 723f fa39 323f
0.014838353 1.3121868 -0.121877894 1.0272692 0.35522208 0.41521445 0.17466967 -0.29820982
0.61505765 -1.5407159 -0.06650224 -1.496385 -1.5633625 0.03626065 0.94812614 0.69619715

fc1.weight f4 [120, 400]
00000000: e14c 65be 4567 5dbd f5a7 4fbd 86c4 54be
00000010: 49fd 25be 05fb 143b e306 27bd 7bc1 e1bd
00000020: 33c8 853d 3d4e cb3c 1be3 043e 522c 3abd
00000030: b0b6 27be 493d 4a3e 3262 0ebc b8ac 80be
00000040: 7a5f a7bd 99d4 ab3c 50f6 d0bd c426 c6bd
00000050: 0482 f1bd 2f7d 9dbd 2dc7 c73a efb7 d63d
00000060: 3630 59bd 6acc 53bd fa2c 04bd a53e 10bd
00000070: 8ac8 a9ba 591a 283e 690d 273e a661 23bd
00000080: 6d5e 9d3d 62ff 643c 5de6 203d 3036 523e
00000090: 8051 163e caca 3a3d 38db f03c c23f 243e
000000a0: 44d8 fc3d 7bf6 3dbc 0ec7 813b f683 a2bd
000000b0: c0a5 7f3d 6375 92bd fdbb 8b3b 6bea 073e
000000c0: 6b1b a0bd c576 903c 9c38 483e 58aa 113d
000000d0: 2493 a13d d148 173d c1e7 1c3e 25a0 bb3c
000000e0: 7c58 063d e3cc dcbd afe0 d43d f67d 3bbd
000000f0: 0838 623d 4285 80bd 4bf4 23bd 05e2 12bd
00000100: a618 4ebd 38d0 8abd bc38 66bd ccda b0bb
00000110: 6e42 2dbc 69fe b23d 6999 2d3d fca7 26bd
00000120: 3ae2 10bd 344b 88bd 8b88 f43d 8754 e63d
00000130: 177a 8a3d ac02 fbbd 5977 0d3d 94a0 963d
00000140: 0741 953d cb75 28be 785c 16be 0757 89bd
00000150: 3ea9 93bd 0640 b7bb ea69 29be 63e5 87be
00000160: 1b6a e8bd 2664 25bd 318f b83c e50e aabc
00000170: d9b5 583d e037 b8bd 8844 843c 020e 733e
00000180: 35be 113d cacd 543a 5789 b93c 12fc 073e
00000190: 5e5c bf3d 86d9 7e3e 5b65 af3e 69ea ad3d
000001a0: fdd4 a7bd f304 103e 0a0a 343e bef5 883e
000001b0: 78b6 423d c520 bc3b 021f 073e 21f5 2d3e
000001c0: 175f 0e3e 7c34 35bd b4ab 233e d6af d03d
000001d0: 98ef fa3c 2bc8 493e 2a6e abbb ffd3 33bd
000001e0: 26e0 f93d b0bc 4b3e 61a8 073e e6dd 253e
000001f0: 4e35 13bd a5f1 4d3e 6280 2dbe c3ce db3d
00000200: 2748 9abb c55e 5d3e 8b38 9e3e bb9e 613e
00000210: af7d 5b3e 9d2e c03d eb7e aa3d 1aa9 6dbb
00000220: fe9f 083d 219d ed3d d072 a53d c6ba 52bd
00000230: 34c9 13be 71da 4abd 2b2e 873e 4b4b 533d
00000240: 9aa3 a5bd e872 c93b 9126 74be 8ffd 74bd
00000250: 79b1 85bd 601b 17ba 2479 3abd abcb 073e
00000260: 3c31 d83d e5fe 833d bb8e 09be aa8c 14be
00000270: 6424 333d ef89 173e 8c0a 7d3d 1570 a8bd
00000280: a617 5cbe 414c 83bd 60a8 b13d c4ca 4bbc
00000290: 880f 23be 8e82 bbbc a00d 3a3d f4bc 07be
000002a0: 81f2 983c be1e a43d 10f2 27bd e7d3 8abd
000002b0: 4952 89bd a309 6ab9 eae3 063e 28b3 39bd
000002c0: 0c61 e7bd 0210 01be dcc4 cebd 16d2 06be
000002d0: eb3f 46be fb25 b9bd 2c42 a5bc 3527 c83c
000002e0: 753e 843c 9b4e 15be 0a87 a3bc 1d38 153d
000002f0: 3d28 8e3c 77c3 1ebb 0bb1 87be 530f 2cbe
00000300: ebfc d7bd 3e8b 55bc 6244 d6bd 9dbc 2abe
00000310: 874b b5bd 7687 1ebd 3882 60bd 0835 29be
00000320: 3dea bebc d8dd 4fbd dd64 143e cadf 373e
00000330: 983c a0bd 0476 27bd 59a7 cd3d 4459 9b3d
00000340: 7533 ce3d e225 243d da84 47be 469a 07bb
00000350: 3e69 023e db85 9f3d 87b9 3c3e 67b7 78be
00000360: defc cebd 11b6 d4bb 9c13 8b3b 92bf c83d
00000370: 2d34 b3bd a3d0 a0bd dab7 9dbe 4016 69bd
00000380: edfc e5bc b111 a53c d7a1 6a3b d954 4b3c
00000390: 5c69 06be e23b dcbd b71d cbbb 4eb8 27bd
000003a0: ef56 17be 23b9 5c3e d7a2 fdbd 7a5d e03a
000003b0: 6a89 7e3a f199 0d3e 22a4 073c 63ef 953b
000003c0: da73 ceba 060e c1bd 12e9 51bd 9382 84ba
000003d0: 18be 83bc a82e fdbc 6c57 a5bd 0fd9 05bd
000003e0: 6e4c cf3d 2cc8 1c3e d1b9 313d e4a6 31bc
000003f0: 7825 b73c 889f e8bc 4b73 3fbd e3f1 9cbd
-0.22392608 -0.054053564 -0.050697286 -0.20778093 -0.16209902 0.0022732627 -0.040778052 -0.110232316
0.065323256 0.02481758 0.12977259 -0.045452423 -0.16378284 0.19749941 -0.008690404 -0.25131774
-0.081725076 0.020975398 -0.102032304 -0.09675363 -0.11792377 -0.076898925 0.0015241854 0.10484301
-0.053024493 -0.051708616 -0.032269455 -0.035215992 -0.0012953442 0.16416301 0.1631371 -0.039888047
0.07684026 0.013976904 0.03928219 0.20528483 0.14679527 0.04560355 0.029401407 0.16039947
0.12345937 -0.01159441 0.0039604967 -0.07935326 0.06241393 -0.07151296 0.0042643533 0.13273017
-0.078177296 0.017634759 0.19552845 0.035562843 0.07889393 0.036934678 0.15322782 0.022903511
0.03279923 -0.107812665 0.103944175 -0.045774423 0.055229217 -0.06275417 -0.040027898 -0.03586008
-0.050316475 -0.06777996 -0.05620645 -0.0053971764 -0.01057492 0.08739931 0.04238263 -0.040687546
-0.035371996 -0.06654969 0.11940106 0.11246591 0.06761568 -0.12256369 0.034537647 0.073548466
0.072877936 -0.16451184 -0.14683712 -0.06706052 -0.07210015 -0.005592349 -0.1654431 -0.26542196
-0.11348363 -0.040378712 0.022529216 -0.020759055 0.0529078 -0.08995032 0.01614596 0.23735812
0.035581786 0.0008117823 0.022648497 0.13279751 0.093437895 0.24887666 0.34257016 0.08491976
-0.08194921 0.14064388 0.17581955 0.26749986 0.047537297 0.005741211 0.13195422 0.1698804
0.13903461 -0.044239506 0.15983468 0.10189788 0.030631825 0.19705264 -0.0052316384 -0.043903347
0.12200956 0.19896197 0.13247825 0.16197929 -0.035939507 0.20111711 -0.16943505 0.10732796
-0.0047083083 0.21618183 0.30902514 0.22033207 0.21434663 0.09383891 0.08324989 -0.0036264122
0.033355705 0.116022356 0.08078539 -0.051447652 -0.14432222 -0.04952473 0.2640241 0.051585477
-0.08087845 0.006147731 -0.23842837 -0.059812125 -0.06527991 -0.0005764272 -0.045525685 0.13261287
0.10556266 0.06445102 -0.13433354 -0.14506784 0.043735877 0.14798711 0.061777636 -0.08224503
-0.21493396 -0.06411029 0.08674693 -0.01243848 -0.15923893 -0.022889402 0.04542315 -0.13255674
0.018670322 0.08013676 -0.041002333 -0.067786984 -0.06705148 -0.00022319569 0.1317288 -0.045336872
-0.11297807 -0.12603763 -0.10096142 -0.13166079 -0.1936032 -0.09040447 -0.020173155 0.024432758
0.016143063 -0.14580767 -0.019961853 0.036430467 0.017353171 -0.0024225393 -0.2650226 -0.1680272
-0.10546287 -0.013033686 -0.10462262 -0.16673513 -0.08852296 -0.038703404 -0.054811686 -0.16524136
-0.023305053 -0.050748676 0.14491601 0.17956463 -0.07824057 -0.040884033 0.10041685 0.075853854
0.100684084 0.04007519 -0.19484273 -0.002069132 0.12735459 0.07789203 0.18430148 -0.24288712
-0.10106824 -0.0064914306 0.004244281 0.09802164 -0.08750186 -0.07852294 -0.3080433 -0.056905985
-0.028074706 0.020150037 0.003580203 0.012410366 -0.13126129 -0.10753609 -0.0061986106 -0.04094725
-0.14779256 0.21554999 -0.12384575 0.0017117702 0.00097098073 0.13828255 0.008278878 0.0045756563
-0.0015751079 -0.09426503 -0.051247664 -0.0010109715 -0.016081855 -0.030906036 -0.08073315 -0.032677706
0.10122 0.15310735 0.0433901 -0.0108430125 0.022356734 -0.028396383 -0.04674081 -0.07663324

fc1.bias f4 [120]
00000000: 7a63 173e d079 2d3d 3a26 8ebc 34b7 a8bd
00000010: d138 0e3e c468 bc3e 8f0e fd3d 0c7b 08bd
00000020: b304 66bd 2b87 53bd 7618 133d 394c 8ebd
00000030: 4103 7b3e 8b60 c13c 143a 693e 619f afbe
00000040: b3ea d4bc 0018 513d d987 013e df58 00bd
00000050: d260 8fbc 7279 e43d 7e81 6c3e 994d 7ebd
00000060: 34d1 153d d943 293e ea59 003e 5012 37bd
00000070: 9209 53bd ce8e 13be 50c1 a83d a022 103e
00000080: 0072 0cbe ad03 253e e202 d1bc ad8c dcbc
00000090: e62c dcbd f8e4 813d 3ea4 dcbb 1742 04be
000000a0: d130 bc3d 18e1 b23d 0605 e63d b944 803d
000000b0: cc14 ab3d 9694 6d3d 3563 103e c23a 39bc
000000c0: b95f 4c3d a6e3 0e3e 66b4 d9bc 3949 753d
000000d0: 5fc0 b6be d0f6 5c3d 4cde ac3d 0a3e b83d
000000e0: b98b 52bc 6cc1 083e 65ec 83be 70b4 8abd
000000f0: bbcd 043e 97be 2fbd 38fb b93e 0ac8 fbbb
00000100: 4e01 953e 713d 23bd 41b5 bc3d 7f88 163e
00000110: 1c20 f3bd 479e a33d 14d8 a0be 330f d53e
00000120: b58d b3bd e7aa 5fbd 820e 5bbe 5f93 873b
00000130: 515a 23be 0865 ed3c ab86 7cbe 5bd6 70bd
00000140: 5d74 813e 96e0 64be a3a0 143e dd82 ea3e
00000150: 6c59 09bd f345 c73e bd6e 0d3e 89c5 56bd
00000160: 8afd a13c c45e cf3d 2167 a3bd 6f50 5d3e
00000170: c9f8 1d3e 5ee0 13bd 0c3f 823e 20a5 cbbc
00000180: 2d51 5f3e b6e7 1d3c d5d3 693d a736 06bd
00000190: 7f42 e43c 2994 6cbe 62f7 cc3d 073e 603e
000001a0: 73da 3e3c f22a 32be 954b f9bc b682 91bd
000001b0: b02e 2ab9 9e51 13be 2880 323b cb0b 8a3e
000001c0: e31d 32bd 36d7 403e 7e90 c8bd 94b3 993e
000001d0: 001c 903d 8556 8f3e c432 b03e df61 06be
0.14784041 0.042352498 -0.017352212 -0.08238068 0.13888861 0.3679868 0.123562925 -0.03332047
-0.056156825 -0.051642578 0.035912 -0.06948132 0.2451296 0.023605606 0.22776061 -0.34301284
-0.02599082 0.05104828 0.12649478 -0.031334754 -0.017502222 0.11155976 0.23096272 -0.06208572
0.036576465 0.16529788 0.125343 -0.0446952 -0.0515228 -0.14409944 0.082399964 0.14075708
-0.13715363 0.16114683 -0.02551407 -0.026922548 -0.10750751 0.063425004 -0.0067334464 -0.12915836
0.091889985 0.087343395 0.11231427 0.06263108 0.08353576 0.05800303 0.14100344 -0.011305513
0.049895976 0.13954028 -0.026575278 0.059884284 -0.35693642 0.053946316 0.08440837 0.08996208
-0.012850695 0.13355035 -0.25766292 -0.06772697 0.12969105 -0.04290637 0.36324477 -0.0076837586
0.29102558 -0.039853517 0.09214259 0.14700507 -0.11871359 0.079891734 -0.31414855 0.4161316
-0.08767263 -0.054606345 -0.21392253 0.004137441 -0.15952422 0.02897884 -0.24660747 -0.058798175
0.2528409 -0.22351298 0.14514403 0.45802966 -0.033532545 0.38920555 0.13811775 -0.052434478
0.019774217 0.10125497 -0.07978655 0.21612714 0.15426935 -0.036102645 0.25438726 -0.024859011
0.2180831 0.009637764 0.057086784 -0.032766964 0.027863739 -0.23103394 0.10008122 0.21898662
0.011648762 -0.17399195 -0.030431548 -0.07105009 -0.00016229856 -0.14386603 0.0027237032 0.26962122
-0.043485533 0.18832096 -0.09793185 0.3001982 0.070365906 0.27995697 0.3441373 -0.13123272

fc2.weight f4 [84, 120]
00000000: df6f eebd e0ce 7d3e bcdd 023e da97 3cbc
00000010: 0f6e 733d 7c47 373d e30d 7bbd 1d72 6b3e
00000020: 0921 19bd e7f7 683a e890 d1bd 1c3d 893d
00000030: 3e3d d0bc 5fb6 6bbd 810d 81be fa5b a8bd
00000040: ca1c 433d ae55 113e 3729 123e 07f7 2839
00000050: 842c 673e 76ed bbbc 85b9 80bd 3fb2 a8bc
00000060: 11c6 e83c 5a1d 0e3e a76c 673e 5175 3f3c
00000070: 96e9 36be 0dbf 08be 3268 323e beb2 bb3b
00000080: a4ca 8cbd 73f3 833c c012 cebd e1bc 93bc
00000090: d86a 833e 71f9 b93b 6b2c 0dbe 65e3 8a3d
000000a0: 7ace 2b3d d026 77be 4b99 62be 780c 9fbc
000000b0: 6508 5fbd 4a0a 203d f901 55be 31ba 0bbe
000000c0: 4680 c2be f42d 08bd a696 8abd 7ea9 a33c
000000d0: 3b44 133e 279f 8abd 65d0 b8bd ede0 43bd
000000e0: 0f64 b3bd 88b7 2cbd 1b1e 2bbd 90fb bd3c
000000f0: 2789 2b3d abb1 38bd 9796 7f3d 9b5f ca3b
00000100: 92cc 203d b923 37bd c78d 643d 3691 6c3d
00000110: f5fe 483d e3c1 553d 2418 8bbd ed0a 34bd
00000120: fd49 9cbd c567 353e 451d 9ebd ae94 44bb
00000130: e054 cabd 283a 0bbd 3605 d4bd 6772 9bbd
00000140: 7eb6 4dbe 0c21 183d e04a c9bd 8d35 113d
00000150: e2ec 54be 8041 003d 1bd4 cabd 27ca b2bd
00000160: f73e 5dbd 268c 643d 7c93 c73d d724 28bd
00000170: 2d80 e3bd bd3b 79be 4176 debd 3ac0 f73c
00000180: 3676 8a3d 3e7b 623d 2d04 003e b852 b63c
00000190: 5061 803c 21b6 12be 588f e23d 534b d5bd
000001a0: 0dca 6abc 2083 f93d a36d adbc 3eb8 3a3e
000001b0: 9b6d a13b 17de 16be 1929 85bc ed26 eb3b
000001c0: 6206 8f3d 88ee 993d 619c 82bd 6945 63bd
000001d0: 1afc 3b3d dd1e 59bd 045a 1bbd 7791 b03d
000001e0: b852 9abd 70d3 663a bf5e 30be 1753 67bd
000001f0: 509e e33d ed01 28bd 6692 79bd 0ba0 173d
00000200: 593d ac3d a86b d0bc e362 45bc 81d2 923c
00000210: 46e2 583d 2589 413c 0651 c13c 38e0 883b
00000220: 1e34 8bbd 26fd e53d 8532 bbbd 9254 4cbb
00000230: b383 7a3c b598 a53a cf94 7cbd a61a 27be
00000240: 90ba 0ebd 13bc ec3a b3f4 bcbd 981e 913d
00000250: 427f 683d c425 5bbd d75b eb3d 2a1d 423d
00000260: 9de5 033d 32e9 7abb c48f cc3d d9df 0bbe
00000270: f303 29bd 276b 173e b064 743e caf1 05be
00000280: 52ea a73d 4c27 22be de6f 203e 5a76 433e
00000290: 4519 2cbe 3d1a 1e3e f4b8 bfbd d517 bf3d
000002a0: e126 07bd 2ff1 5637 2430 d1bc b652 ce3d
000002b0: 794f 233b 91a8 423e f263 36bd 8db3 cf3c
000002c0: 58d9 7abd 8c09 293e 8737 24bc 7d6e 06be
000002d0: e313 e23d 6a3e c6bc 92d1 20be b712 00bd
000002e0: 73c3 c43c 5d78 26bd ca99 08bd 0f80 1ebe
000002f0: 3428 833d b2ee 3dbd 4dca 473c be72 0cbe
00000300: fa30 ec3d 7982 41bd 896c 14be dffb 363e
00000310: 75ee 68bd c7a0 22be 5d74 58be 6113 c1bd
00000320: 0644 203d 68a5 0bbe f043 89bd 1e8d 333c
00000330: 8184 92bd 6e60 5d3d 0c36 4bbe e85f b2bd
00000340: 2eca 0dbd 621e c53c 16e6 a0bd ff72 143d
00000350: a40c a5bd 2a32 d43b 26fc 7ebd 7f00 c8bd
00000360: 1c19 14be 4c80 ad3c 7f26 09bd f57a ebbc
00000370: 465a 43bc 9273 ec3d acf4 05be a632 14be
00000380: 98eb 68ba b4f0 9d3d 0a0e 05bd ed58 ff39
00000390: 6caf 87bd 132a d0bd 2840 543e 66be c83d
000003a0: 9211 a03d fab6 e1bd a2ba 983d 172f 2abd
000003b0: 759f 773d 51c5 83bd fa07 eb3d 4ed7 3dbe
000003c0: c37c 4f3d cd3b 6cbc f191 7dbd c3d5 44be
000003d0: e2a5 f5bd ad7b b73b 38ae d5bd 1f1b 3fbe
000003e0: 8d96 6fbd 588a 633d c94c d43d 0812 bebc
000003f0: dea6 383e 70c3 643d 71a9 a63d 1417 153d
-0.116424315 0.24785948 0.12779897 -0.011510814 0.059431132 0.044745907 -0.06129254 0.2299275
-0.03738502 0.0008887038 -0.10232717 0.06701109 -0.025419828 -0.05754697 -0.25205615 -0.08220668
0.047634877 0.1419284 0.14273535 0.00016113753 0.22575575 -0.022940379 -0.06285385 -0.020592807
0.028414758 0.13878384 0.22600041 0.011685685 -0.17862543 -0.1335413 0.1742256 0.005728095
-0.06874588 0.016107297 -0.1006217 -0.0180344 0.25667453 0.0056754877 -0.13786475 0.06781653
0.04194496 -0.241359 -0.22128789 -0.019415125 -0.054451365 0.039072312 -0.20801534 -0.13645245
-0.3798849 -0.03324695 -0.06767015 0.019978281 0.14381497 -0.06768637 -0.09024123 -0.047821928
-0.08759319 -0.042167217 -0.041776758 0.023191243 0.041878846 -0.045091312 0.062399473 0.006175948
0.039257593 -0.044711802 0.055799272 0.05775567 0.04907127 0.052186858 -0.06791714 -0.043955732
-0.076313 0.17715366 -0.077204265 -0.0029995847 -0.0987947 -0.03399101 -0.103525564 -0.0759018
-0.20089146 0.03714089 -0.098287344 0.03545146 -0.20793489 0.031312466 -0.09903737 -0.08729964
-0.054015126 0.05579772 0.09744927 -0.04105076 -0.11108432 -0.24339195 -0.10862399 0.030243028
0.06760828 0.055293314 0.12501593 0.02225624 0.015671402 -0.14327289 0.11062497 -0.104147576
-0.014330399 0.12183213 -0.021170443 0.18234345 0.004926396 -0.14733158 -0.016254948 0.007176271
0.06983639 0.07516199 -0.06377483 -0.055486117 0.04589472 -0.05300795 -0.037927642 0.08621495
-0.075353086 0.00088053104 -0.17223643 -0.056475725 0.1111418 -0.04101746 -0.060930632 0.037017863
0.08410139 -0.02544196 -0.012047502 0.017922642 0.052950166 0.011812483 0.023598205 0.0041771196
-0.0679705 0.11229925 -0.09140495 -0.0031178338 0.015290189 0.0012634011 -0.061665352 -0.1631876
-0.03484589 0.0018061422 -0.0922636 0.070859134 0.056761988 -0.053502813 0.114921264 0.047391094
0.0322014 -0.0038285968 0.099883586 -0.1365961 -0.041263532 0.14786969 0.23866534 -0.13080516
0.0819899 -0.15835303 0.15667674 0.19088116 -0.16806515 0.15439697 -0.09361449 0.093307175
-0.032996062 1.2811549e-05 -0.02553565 0.100743696 0.0024919196 0.19009615 -0.04452891 0.025354171
-0.06124243 0.16507548 -0.010023004 -0.13128085 0.11038949 -0.024199683 -0.15704945 -0.031267848
0.024018979 -0.04064213 -0.03334979 -0.15478538 0.064041525 -0.046370216 0.012194228 -0.13715646
0.11532779 -0.04724357 -0.14494528 0.17869519 -0.056868035 -0.15881644 -0.21138139 -0.09427524
0.039127372 -0.13637316 -0.06702411 0.010958938 -0.07154179 0.05404704 -0.19844836 -0.08709699
-0.03461664 0.02406234 -0.078563854 0.03624248 -0.08059052 0.0064757066 -0.062252186 -0.097657196
-0.14462703 0.02117934 -0.03348398 -0.028745154 -0.011923378 0.11545481 -0.13081616 -0.14472446
-0.0008885204 0.07711926 -0.03248409 0.00048703645 -0.06625256 -0.10164275 0.20727599 0.098019406
0.07815851 -0.11021228 0.074574724 -0.041548815 0.060454804 -0.064341195 0.11476131 -0.18539163
0.05065609 -0.0144185545 -0.06190676 -0.19222169 -0.1199453 0.00559946 -0.1043362 -0.1866269
-0.058493186 0.055551857 0.10366208 -0.023201957 0.18032405 0.055850446 0.08137787 0.036398962

fc2.bias f4 [84]
00000000: 35de 9b3d 8e1d 92bc da11 c8bd ba1b 843e
00000010: ae29 5a3d ea70 b93e b5e5 c9bd 0dbd 093e
00000020: 0df5 5fbe 88ac f03e aae5 4c3e 9725 0c3f
00000030: 5c9b 99bd 5547 263b e674 2c3f 96bd f9bc
00000040: d550 71bd 4acf b43e 45e7 f9bd bf45 e93c
00000050: 2d31 033e 0bc0 ca3d 2b9e 133f d8d7 233e
00000060: c3a9 1f3f 791c 0abb cc8a 7e3b c080 27bd
00000070: 84b7 c8bd 3377 823d eadb 163e 132c 563e
00000080: 900f 6a3d 202e 733d d642 c7bd 5b8d 5a3f
00000090: 12b7 783e 6424 8dbd da1a a4bd eae9 77bd
000000a0: 6f20 67be d589 d1bd 53a8 7d3e 699b 363e
000000b0: 202a 803e 280d 9b3e 2857 8c3d b556 033d
000000c0: 2738 533e 9d7e 923e 238f 993e 9c78 503e
000000d0: c6a9 c93c 0804 55bd 55de bcbd 63d2 e1bd
000000e0: a220 2a3d b4c7 453d 38dc 1abc b6bf 2f3e
000000f0: 834b 8fbd 4114 c1be 5e65 ef3e ef85 17be
00000100: f15c 42bd 2368 6dbd bfca d4bb 0e3f a03e
00000110: 9676 d2bd 8083 003e 9f8f b23e 20d6 953e
00000120: e882 d3bd 70de 873e 50ea 85bc abe5 08bf
00000130: 05a4 a93b 96eb 183e 6be2 9fbd 4504 aa3e
00000140: e8a2 a13e 29a4 273f 558a f9bd 3b4e 9a3e
0.07610742 -0.017836358 -0.0976903 0.25802404 0.053262405 0.3621896 -0.09858266 0.13451023
-0.21870823 0.4700663 0.20009485 0.5474486 -0.075003356 0.0025372107 0.6736587 -0.03048591
-0.058914978 0.353144 -0.12202314 0.02847564 0.12811728 0.098999105 0.5766322 0.16000307
0.6236841 -0.00210741 0.0038840054 -0.04089427 -0.09800628 0.06370392 0.14732328 0.2091525
0.057143748 0.05937016 -0.09729545 0.8537194 0.24288586 -0.068917066 -0.08012934 -0.060525812
-0.22570966 -0.102313675 0.24771242 0.17832722 0.2503214 0.30283475 0.06852561 0.032065112
0.20626889 0.28612223 0.29992017 0.20358509 0.024617087 -0.052005798 -0.09222094 -0.11026456
0.041535027 0.048286155 -0.009451918 0.17162976 -0.069968246 -0.37710765 0.46757025 -0.14797185
-0.047451917 -0.05796064 -0.006493896 0.31298107 -0.10276525 0.12550163 0.348752 0.29264927
-0.10327703 0.26536894 -0.01634708 -0.53475446 0.0051770234 0.14933619 -0.07806858 0.33206382
0.315696 0.65484864 -0.12184588 0.3013781

fc3.weight f4 [10, 84]
00000000: 81fa 1a3e 2f94 21be b841 2abe 5c0b e13d
00000010: 3820 813e 408c 4bbd 3894 ca3d 5290 f33d
00000020: fa7b 823d 8668 69be 752a 71bd 8bdb 5d3e
00000030: 44bb a03d d59c 623d 6098 99be 7f52 68be
00000040: 9837 2f3e cc70 9dbe 2683 813e 7491 3fbd
00000050: 37e9 123e eea0 493e e529 df3d 077d 843e
00000060: 9afc 6bbe 0fed a1be e37d 46be 2961 863e
00000070: f665 eb3c 47ae 95be 45d4 8e3e 9eb0 28bd
00000080: 1b30 15bd 8227 20be 3d30 fd3d 48e6 93be
00000090: 042d b2be 8757 813e 38e7 3ebd f832 863e
000000a0: d6b2 473d 1b6a 863e 6c8f a5bd 07d6 2dbe
000000b0: bce4 7d3e d926 89be 1681 873d da2a d73d
000000c0: 94a1 3cbe 8b70 fb3d acfb 6e3e da11 523e
000000d0: c122 123c cc38 673e 404b 513e 7710 853e
000000e0: b2d6 9dbe 5525 ed3b a39c 89bc ab32 c6be
000000f0: a07f 8b3d 995b 303e 6aec 573e 1dae 803d
00000100: 3a0e 2d3a 9d68 4cbd 730b 94bd 8c6a dabc
00000110: 8da5 5c3e 8679 c13d 2f45 a83d 9f79 3abe
00000120: 379e 3d3e 1f37 cfbd 83aa 59bd add2 563d
00000130: 7d27 c6bb 5bfa 82bd d329 d7bd 78cf e5bd
00000140: fc7b 25be c1d7 20be 7a82 0a3e 4e1b 35be
00000150: 42b5 59be e2e2 ab3d fade 293d fa2d 01be
00000160: 022b 5ebe 9e7e 943d b5a2 9e3d c2b8 043e
00000170: eb73 853e 064b 94be 5370 783d 8380 c5be
00000180: 6aba 8fbb 575d 8e3e 52b5 b0be bf9b a23d
00000190: 0b0d 393e e853 36be 2614 303e 6ab6 443e
000001a0: fee7 81be 71e9 61bc 2ed0 66be 3a6e eebe
000001b0: 2ec3 7fbe 2723 9c3e 15dd 2ebd ef52 703e
000001c0: 68fd 6f3e d17b 283e a19d 2d3e 93fe ef3d
000001d0: 8ab0 ae3b d9fb 043e 7b94 e73d 416f 97bd
000001e0: 458a b33d bea3 c8bc b1bc 5cbe 729e 4ebc
000001f0: 5f74 643e 1d36 9a3e 8708 843d 0941 1a3e
00000200: d854 7cbe e09e a7bd 1f39 62be 4e12 733e
00000210: c6c1 16be f24b b2bd 0b6c abbd 346a a43d
00000220: 6c8a d83d 4bac 93bd f6cf 853d 3075 f23a
00000230: 545e 933c b1e1 3cbd b898 f83d 0356 a03d
00000240: 2ed1 373e 45b4 0f3e 4a8a 4d3d c3e5 a1bd
00000250: 9138 57bc ee77 80be 90a2 a6bc 52fc 60be
00000260: 4d4f 59bd 87f7 a6bd 72c6 a7bc 6ddf 88be
00000270: 26d6 8e3e 45c5 39be 3e7b 853d 7e32 f73e
00000280: 6a7f 21be c539 493d 2b73 f03c aca3 a13d
00000290: ea2c 17bc b039 9fbe e985 593e 4bb3 f6bd
000002a0: 4897 933d 04d4 15bd 7598 2b3e 6d41 73be
000002b0: b565 873e ea86 7c3e c3ad b7bd 24d3 89be
000002c0: 08d3 c6bd 7815 0bbe 1264 7f3d bf8f 983e
000002d0: eab1 423e 7f90 cdbd e332 193e a57e 67be
000002e0: 42c9 8b3d a85a c33d 31d7 fc3c 5b47 313e
000002f0: 4748 eabc 0764 643d b2e8 bf3e eef8 a73d
00000300: fe10 3c3b 37c9 e63c 683a 6b3e b016 32be
00000310: 1152 b3be cefd 5a3d 6e4b 50bd f4a0 d9bd
00000320: 444a eebc ad61 1c3e 0777 83be 0716 a23d
00000330: 5dbd 1f3d 0bc3 733d 3997 d53c 7504 cd3d
00000340: f1ef 5abe faf5 513d 1e1f 83be e1ea fb3d
00000350: 7059 5f3e 641a 6dbe 2579 92bd 4495 0ebe
00000360: d819 033f 4561 6abd 4356 7cbd 468c c5bc
00000370: b30c 44be b156 37be 29b7 263d 3e0c 30bd
00000380: 029d 0a3c a0af 433d 07e3 95bd ffac 9c3d
00000390: 5c9e 80be 87df 163e ea9c 003d 99b9 493e
000003a0: e102 6b3e 02e3 af3d 6f52 413e 4e41 e2bc
000003b0: a6d7 26be 3cc3 8b3e 5c3f 933e a070 6c3e
000003c0: 7434 fb3d 183b 283e 413f 973e 0ae4 ab3d
000003d0: 4c6e 76bd dc36 78be 212c d6bc 6df4 00bd
000003e0: 1f4f 223c 39a5 08be 24ab 763e aaae 413e
000003f0: 462e aabd ad5e 84be 1a81 f63c c128 d53d
0.15134622 -0.15779184 -0.16626632 0.10988495 0.25219893 -0.0496943 0.09891552 0.11892761
0.06371303 -0.22793779 -0.05887838 0.2166578 0.07848218 0.055325348 -0.29999065 -0.2268772
0.17111051 -0.3075012 0.2529537 -0.046769574 0.14346777 0.19690296 0.108966626 0.25876638
-0.23045579 -0.31626174 -0.1938396 0.26246002 0.028735142 -0.29234526 0.27896324 -0.04118406
-0.03642283 -0.15640071 0.12362716 -0.28886628 -0.3479997 0.2526209 -0.046607226 0.2621076
0.048754536 0.26252827 -0.08083996 -0.16976176 0.24794286 -0.2678745 0.06616418 0.1050622
-0.18421012 0.12277325 0.23338193 0.20514622 0.008919419 0.2258026 0.20438862 0.25989124
-0.30827862 0.0072371163 -0.016798323 -0.38710532 0.06811452 0.17222442 0.21086279 0.062832095
0.0006601546 -0.049904454 -0.07228746 -0.026662134 0.21547528 0.09447007 0.08216321 -0.18210457
0.18517385 -0.101179354 -0.05314113 0.05244701 -0.006047188 -0.06395408 -0.10506024 -0.11221212
-0.16160578 -0.15707304 0.13526335 -0.17686197 -0.2126055 0.08392884 0.041472413 -0.12615195
-0.21696094 0.07250713 0.07745878 0.12961105 0.26065 -0.28963488 0.060653996 -0.3857461
-0.004386236 0.27805588 -0.34513336 0.079398625 0.18071382 -0.17805445 0.17195186 0.1921021
-0.25372308 -0.013788567 -0.22540352 -0.4656847 -0.24976799 0.3049557 -0.04269131 0.23469137
0.2343651 0.16453482 0.16954662 0.11718478 0.0053311037 0.12986697 0.11307617 -0.07394267
0.08766607 -0.02449214 -0.21556355 -0.0126110185 0.22310017 0.3011941 0.06446939 0.15063871
-0.2464174 -0.081846 -0.22092102 0.23737451 -0.14722356 -0.08705892 -0.08370217 0.08028069
0.10573277 -0.07210597 0.06533806 0.0018498059 0.017989315 -0.046113674 0.12138504 0.078289054
0.1795089 0.14033611 0.05018071 -0.07905152 -0.013136045 -0.250915 -0.020341188 -0.21971253
-0.053054143 -0.08152681 -0.020480368 -0.2673296 0.27897757 -0.18141659 0.06517647 0.4828071
-0.15771261 0.04912736 0.029351791 0.07892546 -0.009227017 -0.310987 0.21242489 -0.12045916
0.07206589 -0.036579147 0.16757376 -0.23755427 0.26444784 0.2466084 -0.08968689 -0.269189
-0.0970822 -0.13582408 0.062351294 0.2979717 0.19013181 -0.10037326 0.14960818 -0.22606905
0.06825496 0.09538776 0.03086433 0.17312376 -0.028598918 0.055759456 0.3748222 0.082017764
0.0028696652 0.028172119 0.22971499 -0.17391467 -0.3502355 0.053464703 -0.050853185 -0.106264025
-0.029088147 0.15271635 -0.25676748 0.07914358 0.03899895 0.05951218 0.026073085 0.10010616
-0.21380593 0.051259972 -0.25609678 0.12300659 0.21811461 -0.23154598 -0.07152013 -0.13924128
0.5121131 -0.05722167 -0.061605703 -0.02411474 -0.1914547 -0.17904164 0.04070202 -0.042980425
0.008460285 0.04777491 -0.07318693 0.07650184 -0.2512082 0.14733706 0.031399645 0.19699706
0.22950317 0.0858822 0.18879102 -0.02761903 -0.16293201 0.2729739 0.28759277 0.23089838
0.12265864 0.16428792 0.29540446 0.083931044 -0.06016378 -0.24239677 -0.02614409 -0.031483103
0.009906559 -0.13344277 0.24088722 0.18914285 -0.08309607 -0.25853482 0.030090857 0.10408164

fc3.bias f4 [10]
00000000: cc37 19be 6fe7 92bf 94f0 2abb 1a3c 263f
00000010: 9f49 803f ec4f a1be 2f32 b13e 9b6b 26be
00000020: f114 de3e cbdb c9be
-0.14962691 -1.1476878 -0.0026083337 0.6493546 1.0022467 -0.31506288 0.346086 -0.16251986
0.43375352 -0.394255
